Lenet.pth (torch, 506543 bytes, 10 tensors)

conv1.weight f4 [16, 3, 5, 5]
00000000: 9afd e23d 16b4 a03d 4bb4 343e 4b72 1c3e
00000010: a0d5 f33c 744f 613c e9e9 d93d 6b2c 9f3d
00000020: 1700 2e3e b9cf 023d 74de 30bd 086b d03b
00000030: 62eb d13c 1298 663d db07 293d ac1a c3bb
00000040: 031d 293e 9dd6 c93d abde ba3d 0a19 65bd
00000050: 8313 b33d f465 103c 8585 17bd 21b9 b83d
00000060: 0f44 e73d 51cb 58bc 1628 e03d c73e 753d
00000070: 144a c23d d80b 2c3d 2a89 7dbd c8a2 1a3e
00000080: 623a 073e c103 b23c 536d 11bd 45a9 103e
00000090: 5d53 923d dacb d83d 3a3e 7e3b 7bc6 293d
000000a0: 3ed6 043e 033c e83d 87fc 873d f85e 283d
000000b0: 94a9 903d 4135 f43d 28d5 df3c d7d7 4abc
000000c0: 5acc d53d 1a26 163d 9146 0ebd 8a8f 953c
000000d0: acd1 eb3d b5ac 443d 3413 b43d 2c50 183e
000000e0: cdeb cd3d 0395 203e 59ee 11bd 7cc6 063e
000000f0: 0ecc 873d bf3c 073e 4f54 343d c0c3 bebc
00000100: 516a 77bd 4def b53d fb69 1abd a065 303e
00000110: 846d 0b3e f446 d63d bad4 863d 7173 0b3e
00000120: 63a5 39bd 70f1 d33d 30f4 3bbd 5c1b 313e
00000130: 0a67 903d fc9d 67bb c4dd d2bc 33a5 2c3e
00000140: adb2 5d3d c516 95bc 8098 5bbb e47b 653c
00000150: 6406 523d 84b8 af3d 213a 153e 2ab8 563d
00000160: 9d2a d83c 5c21 25bd 66f1 743c d5e7 acbd
00000170: 81e3 a73d fcb2 42bd 20e4 00bd 63eb a3bd
00000180: 6f7c 0bbe a8a5 0ebd d69a f4bd 6f95 d4bd
00000190: a132 cdbb 32a0 3e3c edb9 f93d 1c58 57bb
000001a0: 0ab6 9dbc 81ff 103d 5284 903d f82b 1e3e
000001b0: 3cc6 293e f0a1 aa3d 9fcd 8a3d d7a0 1a3e
000001c0: b5fc fb3d b1be b23d 0000 273e dd04 cbbd
000001d0: 8a24 183d 243c e53c 98c1 343d cf41 3fbd
000001e0: 5175 93bc 3325 c5bd 86fd a3bd 5402 f5bd
000001f0: 30e9 b9bc e853 363e dd55 1c3d 3e96 f03c
00000200: 0a84 3b3e beb2 ea3d 3392 6f3d a760 a03d
00000210: 9ee7 713d 0af2 f93d 1299 b83c 3f7d 21bd
00000220: 8892 1b3d 9a26 b83d 5735 58bc b27f b43d
00000230: a046 4a3d d4db 01bc e3dc e7bd 8716 ec3d
00000240: 5e55 ae3d ea70 13be 55ca 0dbd 10bd 313c
00000250: f287 473d bcd2 bdbd 9abd 993d 1859 003e
00000260: ec17 973d 26f7 3a3d 5147 06bc 8f54 f63c
00000270: 885e 94bb 0b83 183e 276d d13d 1d08 adbc
00000280: 576c fabb 88ac 223c 3cb2 fb3d 98d0 233c
00000290: 8f33 e63d c1ac 3d3d a7d9 133e 3b1e b23d
000002a0: a4c5 1e3e 03c1 ca3d 2928 fabc 7091 013e
000002b0: 58e2 0c3e fe18 e13d df1c 0b3e 5407 e13d
000002c0: 12a4 273d 4793 133e 6b1b 24bc 168d e43d
000002d0: 8e82 283d 8926 003d af98 3b3e 773b cb3c
000002e0: 9c6c 8bbb 7f9c ab3c 4659 323e e7f6 183e
000002f0: acbf c33d f811 fdbc ff08 3f3c 346a 413e
00000300: 234c b63d 6a71 af3d 9e40 313d fbda 253d
00000310: 087c 923c 61ba ae3d 5a49 ef3d 8b79 c6bc
00000320: c1b9 1f3e 229e c6ba 8bad fe3d 0b12 e83c
00000330: 1538 313d b0b3 963c 85cd f03d d15e 3b3e
00000340: 2788 97bc 2a67 1a3e 1f53 813d 23a3 403d
00000350: 8064 a63c 24ba 0cbd b4de 263d 52fb 893b
00000360: 7b1f ecbc 6007 173e 5a9c 093e 83a3 a93d
00000370: 73dc 573c af26 b03d dd79 0cbd cff4 45bb
00000380: 5664 2a3e ca24 eabc 0ab7 de3d f8c6 ad3d
00000390: 68c3 583c c9a9 b73c 66cf b4bc 9c53 ac3d
000003a0: 3488 a13d 08f9 f93d e8cc 153e f618 deba
000003b0: e3c7 51bc a2fb bdbb be28 b23d e615 52bd
000003c0: ca64 b9bd 98d9 8e3c 50d2 4a3d 5c60 853c
000003d0: a73d 543d 5f46 daba 0b69 173d 5bff 5fbd
000003e0: 5c1f 973d 397a 963d b2f7 563d e5bc ab3d
000003f0: 4367 283e afc1 9d3c b181 f73b b7f5 043d
0.11083527 0.07846849 0.17646901 0.15277974 0.02976495 0.013751853 0.10640318 0.07772144
0.16992222 0.03193638 -0.043180898 0.0063604154 0.025624935 0.05629737 0.041267257 -0.0059541073
0.16514973 0.09855387 0.09124502 -0.055932082 0.08743956 0.00881337 -0.03699257 0.090196855
0.11292278 -0.013232068 0.10945146 0.059874322 0.094867855 0.042003483 -0.061898388 0.15101159
0.13205865 0.021730306 -0.03550465 0.14127071 0.071448065 0.105857566 0.0038794414 0.04144905
0.12972352 0.11339571 0.06639963 0.041106194 0.070635945 0.1192422 0.02732332 -0.012380562
0.104393676 0.03665743 -0.034735266 0.018256921 0.11514601 0.04801627 0.08792725 0.14874333
0.10054741 0.15681843 -0.035627697 0.13161653 0.06630717 0.13206767 0.044025715 -0.0232867
-0.060404126 0.088835336 -0.037698727 0.17226267 0.13615996 0.10462752 0.06583543 0.13618256
-0.04532374 0.10348785 -0.045887172 0.17295593 0.07050903 -0.0035341969 -0.025740512 0.16859894
0.054125477 -0.018199334 -0.0033507645 0.014006589 0.051275626 0.085801154 0.14572956 0.052421726
0.026387507 -0.040315017 0.014950132 -0.08442656 0.0819769 -0.047533974 -0.031467557 -0.08003881
-0.13621686 -0.03482595 -0.11943595 -0.10380065 -0.006262139 0.011634873 0.12193666 -0.0032858914
-0.019251842 0.035399918 0.07056488 0.1544646 0.16579527 0.083316684 0.067775 0.15100418
0.123040594 0.08727778 0.16308594 -0.09913037 0.03714422 0.027982779 0.044129938 -0.04669362
-0.018000277 -0.09626236 -0.0800734 -0.11963335 -0.0226942 0.17805445 0.038167823 0.029368516
0.18312088 0.114598736 0.058489036 0.07830935 0.059058778 0.122043684 0.022533927 -0.039426085
0.03798154 0.08991738 -0.013196311 0.088134184 0.04938376 -0.007925946 -0.11321428 0.11527734
0.08512376 -0.14398542 -0.034616787 0.010848299 0.048713632 -0.0926871 0.07506867 0.12533987
0.073776096 0.045645855 -0.008195714 0.030069618 -0.0045278706 0.14893739 0.10225897 -0.021122033
-0.0076423096 0.00992883 0.12289855 0.009998463 0.11240303 0.04630733 0.14438497 0.08697172
0.15505081 0.09900095 -0.030536728 0.12653136 0.13758218 0.10991095 0.13585232 0.10987726
0.040927954 0.1441165 -0.010016303 0.111597225 0.04114013 0.03128675 0.18319963 0.024808628
-0.0042548906 0.020948647 0.17416868 0.14937936 0.09558043 -0.030892357 0.01165986 0.1888817
0.08901241 0.08566554 0.043274514 0.04049204 0.017881408 0.08531643 0.116839126 -0.024227878
0.15598203 -0.0015153328 0.124354444 0.028328916 0.043266375 0.018396229 0.1175795 0.18297888
-0.01849754 0.15078416 0.06314682 0.04703058 0.020311594 -0.034357205 0.04073973 0.004210868
-0.028823605 0.14748907 0.1343855 0.082831405 0.013175118 0.08601128 -0.034295905 -0.0030205732
0.16639838 -0.028581996 0.10874756 0.08485216 0.013230182 0.022419827 -0.022071552 0.08414385
0.07887307 0.12205702 0.14628947 -0.0016944695 -0.012804004 -0.0057978192 0.08699177 -0.051290415
-0.09052427 0.017437741 0.049516976 0.0162813 0.05181661 -0.0016653052 0.03696541 -0.054686885
0.07379028 0.07347531 0.052482314 0.08385638 0.16445641 0.019257395 0.007553302 0.032460894

conv1.bias f4 [16]
00000000: 7c71 1f3c 7d58 893c f1f5 543d d4e8 a93d
00000010: 5a96 35bd 1df5 853d 1138 bfbc 679a 4f3d
00000020: f253 dfbd be57 e13d 8c72 74bb 1962 cc3c
00000030: b312 913d 52cc e93d bf13 05bc 6a4c 2bbc
0.009731647 0.016765827 0.05199236 0.082963616 -0.04433284 0.06540892 -0.023342164 0.05068436
-0.10904683 0.110030636 -0.003729972 0.02494912 0.07083645 0.11415924 -0.008122384 -0.01045523

conv2.weight f4 [32, 16, 5, 5]
00000000: fddf 24bc 22d0 e4bc 0f7a 5a3d d532 793d
00000010: 4d34 823d a26f 98bc d0e9 f9bc 1514 033c
00000020: 2fe1 4e3d 1f57 8d3c 6901 a7bd ac8a 3cbd
00000030: 32f3 5fbb 0b35 2dbc df12 983d 0d8b 4fbd
00000040: 53a1 1abd 824c 7abb 1229 9f3d abae 193c
00000050: c960 a73c 54a3 79bb 5a16 8d3c e4dd 05ba
00000060: a23d ceb9 f574 9c3d b398 ff3c 8b69 14bd
00000070: 2317 5dbc 215e 02bc 7432 a33c 4635 b6bd
00000080: ebab 1b3c 9bdc 0d3c 21cf aebd 23f8 52bd
00000090: f093 92bd 2186 45bd d6ce 983c 5c41 ddbb
000000a0: 9021 d4bd c622 19bd 0cfe 4dbc ef1a 123d
000000b0: 97bf cdbc 5f8f ffbd 3034 c9bd d3f7 0a3b
000000c0: 1e3f 833c 8747 03bd de10 5e3c 1db0 28bd
000000d0: 7f0a 813d 6127 7c3d 0714 3ebc 6b71 22bd
000000e0: 386a 30bd f184 75bc 522f 343d e340 413d
000000f0: 5947 6fbd 2010 463a b525 1e3d b3c3 c83c
00000100: 06ec 883b da5d 61bd 0802 a7bd 5130 953c
00000110: 2c17 883c 8ecd 533d 2d20 5bbd 7757 8fbd
00000120: 941a a9bc 3714 403d fe39 e63c e730 93bc
00000130: f26d 6abc 1104 f33c d375 8b3d 002b 77bd
00000140: ac79 0cbd fdb0 69bd 4d88 133c 285b 843d
00000150: 4ec8 f9bc 6bff 88bc 52ed 103c 9f49 d33c
00000160: 0cce 3c3d 4156 473d 2914 49bd a79f 9fbd
00000170: 58a1 413d 9a57 983d 0c33 833d 9c27 18bd
00000180: d7c0 27bd 731c 873c 3483 e23c 9e42 6f3c
00000190: 4933 cc3c 138d 7f3c ad3c 6c3d 4770 cb3c
000001a0: 58a2 02bd 4df8 49bd d9e8 40bd c520 b6bc
000001b0: 9d65 c23c a3e2 1e3c 6e6e 01bd 6519 83bc
000001c0: b154 bdbc 6178 983d 5f48 12bc 6ae0 97ba
000001d0: 4f97 123c 0808 023c d2f9 193b dbc7 5d3d
000001e0: 35e3 87bd 5bce 48bd d325 493d 44fe 103d
000001f0: 758f d33c 0182 08bc c347 dbbc 1c55 573d
00000200: 1439 bebd 2308 9ebd edaf 51bd 8cf3 5cbd
00000210: cce7 fa3b 7a48 b9bd 4951 80bd a6a2 19bd
00000220: 9145 2abd 1f59 6d3d b51f 13be 127a 27be
00000230: c4d0 25bd 5c10 bcbc dca8 6c3d d384 c4bd
00000240: acdd e9bd f015 d63c e0da 29bc 86fd 933d
00000250: 0900 90bd 2abc f7bd 8482 d43c 66da cf3b
00000260: 7c72 02bd 1366 003d 6997 3bbd 3648 51bd
00000270: aad7 71bd 9778 0b3d bf7d 7f3d 1ded fdbb
00000280: d9f3 32bd b407 c6bd c83a eabc 041f 4f3d
00000290: 8354 133d 92ae a9bd a7bc 9fbd b85b 083d
000002a0: 33ee 803b 03b2 2f3b 9c42 17bd 68eb 56bd
000002b0: 05dd bebc e8da 523d 698e 853d d796 7eba
000002c0: 8e65 4abd 6f86 453d ce4b c03c 2ccb b7bc
000002d0: 420e 1abd c39b 823c 1a09 9c3c e2a5 063b
000002e0: 8be2 9b3c e58c 13bd ef37 fc3c 0b8f 88bc
000002f0: b772 a03d f1e8 9ebc 7aac 8fbb 10b3 75bc
00000300: 3b91 143d 1c2b 8fbc 0fcf 703c 7a4b bbbc
00000310: 83b7 19bd ed46 8a3d a657 fd3c de3d c7bc
00000320: 9a44 f23c 74e5 91bc 2803 c73b 6f84 433d
00000330: e347 30bd a0f9 7cbb dbe8 40bd 9008 c7bc
00000340: 853c 2cbd da4a c03c cd25 44bd 2c6a 213c
00000350: 820d be3c ba41 46bd 668a ac3c 5edd 1ebd
00000360: 620b ae3c 6af4 ff3c d47d 103c d014 e63b
00000370: 6058 2abc 9f0c 463d e0b8 80bc 203e 09bc
00000380: 4b81 4c3d 99be 5abd d81f 0f3d f9c3 fc3c
00000390: ffe3 313c f88f 50bd 74b5 52bd 4cc1 9e3c
000003a0: dd8f d73c e7f5 fabb 22c0 32bd c868 b0bd
000003b0: 3b7f be3c e606 1b3b 62e8 a6bb f127 a7bd
000003c0: f66c c7bd f4a6 263d aa2a 503d 29c3 69bc
000003d0: 6c73 9abc 7c84 88bd 0a41 373d 69d5 023b
000003e0: 763f e7bb 29b3 e53b d2c3 dabc fbbc d33c
000003f0: ca05 13bb 4e21 a2bb 5016 5d3c fc8b 7ebc
-0.010063169 -0.027931277 0.05333906 0.060839493 0.06357632 -0.018607918 -0.030506998 0.008000393
0.05050772 0.017253457 -0.08154566 -0.046030685 -0.0034172055 -0.010571728 0.074254744 -0.05066972
-0.037751507 -0.0038192575 0.077715054 0.009380023 0.020431893 -0.0038091736 0.017222572 -0.00051066116
-0.00039337302 0.07639495 0.031200742 -0.036233466 -0.013494286 -0.007957012 0.019921519 -0.0889688
0.009501438 0.0086585535 -0.085356005 -0.051506173 -0.07157123 -0.04822362 0.018653315 -0.006752176
-0.10357964 -0.03738668 -0.0125727765 0.035670217 -0.025115771 -0.12478518 -0.09824407 0.0021204844
0.016021308 -0.032050636 0.013553826 -0.04118358 0.0630083 0.061560992 -0.011601455 -0.039658945
-0.043070048 -0.014985309 0.04399044 0.04718102 -0.05841765 0.00075555034 0.03861018 0.02450738
0.004178527 -0.055021144 -0.08154684 0.018211516 0.016612612 0.051709704 -0.053497482 -0.069991045
-0.020642556 0.04689428 0.028103825 -0.017967654 -0.01430844 0.029665025 0.068095826 -0.060343742
-0.034295723 -0.057053555 0.009004665 0.06462699 -0.03049102 -0.016723355 0.008845644 0.025791941
0.04609494 0.048666243 -0.04909149 -0.07794123 0.04727301 0.07438584 0.06406221 -0.03714715
-0.04095539 0.016493058 0.027650453 0.014603285 0.024926798 0.0155976 0.057675052 0.024833811
-0.031893104 -0.049309064 -0.04709706 -0.022232423 0.023730094 0.009697589 -0.031599455 -0.01600332
-0.023111673 0.074448355 -0.008928387 -0.0011587266 0.008947208 0.007936485 0.0023494852 0.054145675
-0.06635133 -0.04902492 0.049108338 0.035398737 0.025825242 -0.008331777 -0.026767617 0.0525714
-0.092882305 -0.07716396 -0.051193167 -0.053943202 0.007657027 -0.09047027 -0.06265504 -0.03750863
-0.04157025 0.05794632 -0.14367564 -0.1635516 -0.040482298 -0.02295702 0.057778224 -0.09595647
-0.11419234 0.026133507 -0.010367125 0.0722609 -0.07031257 -0.12096436 0.025941141 0.006343174
-0.031847462 0.031347346 -0.045798693 -0.051094256 -0.059043564 0.03405055 0.06237578 -0.0077492134
-0.043689582 -0.09669438 -0.028592482 0.05056669 0.03596927 -0.0828525 -0.077996545 0.033290595
0.0039346456 0.0026808984 -0.036928758 -0.052470595 -0.02329875 0.051478297 0.06521303 -0.0009711808
-0.049413256 0.04822391 0.023473646 -0.022435747 -0.037611254 0.015943414 0.019047309 0.0020545651
0.019028923 -0.03602304 0.03078839 -0.01666977 0.0783438 -0.019398184 -0.0043845745 -0.014996305
0.036271315 -0.01747661 0.014697804 -0.022863138 -0.037528526 0.06751809 0.030925583 -0.024321493
0.029573727 -0.017809607 0.0060733743 0.04773372 -0.043037307 -0.0038600937 -0.04709707 -0.024296075
-0.042049903 0.023473192 -0.047887612 0.0098519735 0.0231998 -0.048402525 0.021062087 -0.03878533
0.021245662 0.031244475 0.008819062 0.007021524 -0.010397047 0.04835188 -0.015713155 -0.008376628
0.04992799 -0.053404424 0.034942478 0.030855166 0.010857581 -0.05091855 -0.05144258 0.01937928
0.026313717 -0.0076587084 -0.043640263 -0.086137354 0.023254028 0.0023655235 -0.00509362 -0.08161915
-0.097375795 0.040686563 0.050821938 -0.014267721 -0.018853866 -0.066658944 0.04473976 0.0019963628
-0.0070571257 0.007009883 -0.026704703 0.025846949 -0.002243387 -0.004947818 0.013494089 -0.015536305

conv2.bias f4 [32]
00000000: c620 223d 1615 49bd 9ac2 e93c fa58 443d
00000010: 15c5 063c dd32 33bd b609 8fbc f851 193d
00000020: c98b 15bd 7ce0 793d abaf abbb db40 39bb
00000030: b15a 343d b0ee 6abc a7fd 293d 9bbf 113c
00000040: 3a3f 2a3b a2a0 4cbd cafb 38bd 4381 afbc
00000050: 832c 05bd abb8 353c 95fc 96bc 9dfa 68bd
00000060: 14e0 5c3d 337b bb3b 51ae 4cbd b24b 8fbc
00000070: 0be9 173c 3fa5 23bd dc29 62bd fa5f 4e3d
0.039582036 -0.049092375 0.028535176 0.047936417 0.008225699 -0.04374968 -0.017460685 0.037431687
-0.036510263 0.0610051 -0.005239447 -0.0028267417 0.044031803 -0.014339134 0.041501667 0.00889578
0.0025977627 -0.04995788 -0.045162 -0.021423941 -0.032513153 0.011091392 -0.018430987 -0.05687963
0.053924635 0.0057214736 -0.04997093 -0.017492149 0.00927187 -0.039952513 -0.0552157 0.0503845

fc1.weight f4 [120, 800]
00000000: 8864 523b 7bd7 733d 58fb 0cbd 0538 19bd
00000010: 4eed e73b a1c7 5cbb 6571 5b3c 6c67 d9b8
00000020: 8152 823c 652b f63b 4ea5 cfbc 09a6 173d
00000030: 1687 083d bbe3 823d 9b02 f1bc c523 06bd
00000040: 8f00 52bc 82a8 0f3d 13fa 4a3a 45ac a83a
00000050: 90d4 62bb a1c1 6abd f1f1 833c d3bc 223d
00000060: 2492 a4bb 8a58 563c 7611 45ba 7278 e6bb
00000070: 96e2 5bbc f3e2 023d e15b adbc 96a2 b23c
00000080: ba52 543b 4ed2 aebc 2ea1 cf3c 04a8 163d
00000090: 2d37 3d3d 6406 fd3c ee0b 2dbc 4fbc 69bb
000000a0: 5430 333c 447b ec3b 9daf 373d 38d8 43bd
000000b0: 4d5f 953c 22a1 fb3b b8a9 23b9 58d1 2d3b
000000c0: 4214 973b feb4 dd3c 007e 3f3d 7bd2 1a3b
000000d0: 5463 afba 7b94 21bd a43b 3c3d 4c03 89bc
000000e0: c217 633d 1c01 a33c ad1d 08bd a958 5dbd
000000f0: e95c 303c 646b 3f3d 6e1e 86bc 0f82 8d3c
00000100: 94cb cdbb 86c6 f83c fb30 6b3d 5bcc 0b3d
00000110: 0d90 8ebc cbff 0039 0458 cc3c c183 25bc
00000120: 48f1 59bc de5b 2c3d eb96 353d 524a 383d
00000130: 707a c83c 79c3 633b 672d 32bc add9 5dbd
00000140: df3d 0c3d 014c 3b3d ec60 89bc 87af 243c
00000150: 389b 8ebd 15b4 8ebb b82e 9d3c c3a2 5abc
00000160: 05cd 473d 4d9c 6ebd d30e 90bb 04d1 3cbd
00000170: a0ee f53c 9512 1c3d 9049 5cbd 8b47 7dbc
00000180: 1e8a 88ba f609 cbbb 9097 143d 0b10 93bc
00000190: 5a9a 0e3d 4ea2 b7bc 7400 01bd 99b3 17bc
000001a0: 0399 10bd 0ed9 ae3c 9a05 83bc a854 4a3c
000001b0: 0311 8c3b 7bb1 cbbc 5075 073d d0c3 1a3d
000001c0: bbf2 c0bc a8e7 e43c 044c a93c 6fcd 0a3d
000001d0: 9a3c f53b 9c20 7d3b f3ae 773d 201b 6fbc
000001e0: 8b75 003d 8fd7 01bd b528 67bd 7e3d 493d
000001f0: 0b3e 673d ea32 353c 1b9c 8b3b 8fb1 74b9
00000200: 2bbf 963b ed4a e0bb 6739 ccbc 75d0 a03c
00000210: 8f8e 01bb 7ce4 e73c 4ecd 19bd cd41 b9bc
00000220: e791 53bc a150 a2bc 1841 7c3c c475 9ebc
00000230: ef6c aa3c 8755 10bd 9e44 f33c 3486 213d
00000240: 5a74 4d3d 2744 aa3a e226 f13a 748c 3bbd
00000250: 851e 443c bafd 483c e9a0 61bd 7b32 fcbb
00000260: 9689 253d 6e61 ecbc 3391 d5bd 9164 59bd
00000270: 54ba 36bc f6a8 eabc a2c0 133c 90b4 433c
00000280: 437b 013d 3638 493c 71c3 e13c 04a0 cf3b
00000290: 8d7d b43c 4e0f 963c 173f a5bd db78 3fbd
000002a0: 295c 18bd 1de2 733d ef51 de3b 94bb f2bc
000002b0: fcd7 27bd 6184 98bb 77bc 91ba fc67 11bc
000002c0: 1ff1 3cbc bafd b0ba f13b 353d 4114 1fbd
000002d0: ddfc 9b3c 30da 083d c8d3 e83c ec50 093b
000002e0: c7b7 303c 749e 14bb e9d5 58bc 2e59 c13c
000002f0: 8d4f 323c 192f e63c b04d 6dbc fa57 04bd
00000300: 444c 8d3b 2565 173d 8cfb 2e3d cd72 e23c
00000310: 4015 d9bc 01c1 aebc ec64 e6bb c5c1 773c
00000320: 988a e23c 8e42 003d b55c f7bc ad1e 32bb
00000330: f1e4 403d 59ce 12bd dc3a f33c d58a 83bc
00000340: b42e 3d3d 3796 9f39 4b61 41bd 087a 33ba
00000350: fe00 993b 773a d5bb a6e6 bcbc fa2d 47bb
00000360: dcce 9cbc 4d16 3bbc f582 19bd 65dd 6f3c
00000370: 2873 2039 4793 d43b eeac 6d3c d11a bdbc
00000380: 5871 8c3c d7a3 aa3d 86ce bb3c 5cd6 89b9
00000390: a4a6 fe3c b82c 983d 19e6 953d 63df d8bc
000003a0: ce9c 4d3d c3e8 403d 404c 333d 6c7c 57bc
000003b0: 18d7 64bc a0d6 25ba 5dd6 0b3d 13d5 b5bc
000003c0: ae63 0d3d 6c03 df3b 7ef6 483d fb31 d8bc
000003d0: bdf3 48bd 95ef a23c 1700 483d b1c8 533d
000003e0: 14e9 21bd a41c 72bd cd94 b4bb c97c 48bc
000003f0: 5abe 7b3d 61ff 583c 2b99 29be 9318 a0bc
0.0032103378 0.05953167 -0.034419388 -0.03740694 0.0070778495 -0.0033688324 0.013393735 -0.0001036663
0.015908482 0.0075124972 -0.025347378 0.037023578 0.033331953 0.063910924 -0.029420188 -0.032748956
-0.012817516 0.03507281 0.00077429524 0.0012868723 -0.003461156 -0.057313565 0.016106578 0.039730858
-0.005022304 0.013082633 -0.00075175555 -0.007033401 -0.0134207215 0.031954717 -0.021161975 0.021806043
0.0032397942 -0.021340515 0.025345411 0.036781326 0.046195198 0.030886836 -0.010561926 -0.003566522
0.010936815 0.007216843 0.044845212 -0.047813624 0.01823392 0.0076791206 -0.00015608117 0.0026522484
0.004610569 0.027063843 0.046751022 0.0023623991 -0.0013381043 -0.039448243 0.045955315 -0.016725205
0.05544258 0.01989799 -0.033231426 -0.05403963 0.010764339 0.046733275 -0.016371932 0.01727393
-0.006280372 0.0303681 0.05741976 0.034130435 -0.017402673 0.00012302322 0.024944313 -0.010102213
-0.013302155 0.0420798 0.04433338 0.044992752 0.024472445 0.0034753962 -0.010875083 -0.05416267
0.034238692 0.04572678 -0.016769849 0.010051615 -0.069631994 -0.0043549635 0.019187316 -0.0133444695
0.048779506 -0.05825453 -0.0043962984 -0.04609777 0.030021012 0.03810366 -0.053781092 -0.015458952
-0.0010417139 -0.006196256 0.036277354 -0.017951986 0.03481517 -0.02241626 -0.031494573 -0.009259128
-0.035302173 0.021343734 -0.015993882 0.012349285 0.004274489 -0.024864903 0.033070862 0.037784398
-0.023553243 0.027942494 0.02066613 0.033887323 0.007484031 0.0038624173 0.06046958 -0.014593869
0.031362098 -0.031699713 -0.056435306 0.04913091 0.056455653 0.011059502 0.0042605526 -0.00023335799
0.0046004257 -0.0068448693 -0.024929715 0.01963065 -0.001976881 0.028307192 -0.03754931 -0.022614384
-0.012913204 -0.019813837 0.015396379 -0.019343264 0.020803897 -0.035237815 0.029695805 0.039434627
0.05015979 0.0012990282 0.0018398429 -0.045788243 0.011970167 0.012267524 -0.055085097 -0.0076964474
0.040414415 -0.028855052 -0.10428085 -0.053074423 -0.0111528225 -0.02864502 0.009018095 0.011944905
0.031611692 0.012281468 0.027559014 0.006336214 0.022032524 0.018317845 -0.08068674 -0.046746116
-0.037197266 0.05954181 0.0067846696 -0.02963046 -0.040977463 -0.0046544527 -0.0011118789 -0.008874889
-0.011532097 -0.0013503351 0.044246618 -0.038837675 0.019041473 0.033411205 0.028421298 0.0020952774
0.010786003 -0.0022677453 -0.013234594 0.023602095 0.010883224 0.02809863 -0.014483854 -0.032310463
0.00431207 0.036961693 0.042720363 0.027642632 -0.02649939 -0.021332266 -0.007031074 0.015121882
0.027653977 0.03131347 -0.030195573 -0.0027178929 0.047093336 -0.03584132 0.029691152 -0.016057411
0.046187118 0.00030438762 -0.047211926 -0.0006846492 0.0046693077 -0.0065072137 -0.0230592 -0.0030392394
-0.019141607 -0.011418891 -0.037478406 0.014640187 0.00015301688 0.0064872834 0.014506562 -0.023084076
0.01714389 0.08332031 0.022925626 -0.00026290386 0.03108532 0.074304044 0.07319278 -0.026473707
0.05019837 0.04709698 0.04377389 -0.013152223 -0.013967298 -0.0006326232 0.03413998 -0.022196328
0.03451889 0.006805828 0.0490632 -0.02639102 -0.049060572 0.019889632 0.04882821 0.051705066
-0.03952892 -0.059109345 -0.0055109025 -0.012236782 0.06146083 0.013244481 -0.16562335 -0.019542968

fc1.bias f4 [120]
00000000: ed7f 6dba 3122 2d3c df61 82bc 8595 00bc
00000010: a6dd 8c3c cac3 d93c ba19 013d 70d6 403d
00000020: 2fb4 3b3c 3d1f d7bc 0daf 40bc d219 8e3c
00000030: bb5a 2c3d 50d8 c83c 1a4e 0d3d 5bf1 4ebc
00000040: 3181 a13c 26d3 4e3d 526a f03c 0192 0f3d
00000050: 8869 47bc 2001 15bb 6df6 c5ba 018a 2c3c
00000060: ae5b b8bc 6aab 90bc 7e16 bb3b 194f 74bc
00000070: 67f5 a73b 869d c9bb 6127 223d b6d7 113d
00000080: e039 07bd 5af5 efba 8fc9 873c b4f1 db3c
00000090: fa03 e0ba 0e56 08bd b600 7d3c 779a c23c
000000a0: 57c3 9e3c 1c29 90bc 5400 d53c 84b0 143d
000000b0: 711f 5ebc 4a0b 253d c926 c13c 2f7a 0f3d
000000c0: b228 6c3c e1a8 e33c 9485 0e3d f2b4 15bd
000000d0: aed6 013c 67cc 293d 45dd 3d3d 7423 acba
000000e0: feb2 be3c 842f e03b 8b33 ffbc 017b 1c3c
000000f0: da24 40bc 973a f4bc 744f aa3b 0480 e43c
00000100: 3c26 6b3d da81 563c 6ff6 ca3a 05c4 70bb
00000110: 1084 803b 285d 3a3d aba0 20bd c625 03bc
00000120: fe9f 5dbc dd8c 9dbc f1bb 0abc 157f 04bd
00000130: 673e afbb 38ec c33c 128f 04bd 3e6a 24bd
00000140: cc1d 35bd 91d3 30bc 2494 12bd 491b 0dbc
00000150: c052 04bd 60de 33bc 9501 43bb 2ae0 653d
00000160: fb1d 943c 2650 0f3c c66e 6a3c 6525 d8bc
00000170: c4bd 123d 048e 153b 1a64 6fbc e302 5c3c
00000180: 9c7a 0dbd c159 763b f0e7 f3bc 920a eb3b
00000190: d446 473c 2f0a 7f3c aa2b 0f3d 4f26 e43c
000001a0: 00e4 cfbc 764b 2abc 9cd2 3a3c e243 bebb
000001b0: e0cb e03c 7129 babc 98c5 ddbc a783 d6bc
000001c0: b0b3 67bc cd41 8bbc d566 1d3d c4a2 bebc
000001d0: e989 193c a585 db3b 67eb 6f3c 8365 b23c
-0.0009059895 0.010567234 -0.01591581 -0.007848148 0.017195534 0.026582617 0.031518675 0.047079504
0.011456533 -0.026260013 -0.011760485 0.017346296 0.042078715 0.024517208 0.03449831 -0.012630786
0.019714924 0.050494336 0.029347572 0.03505135 -0.012171157 -0.0022736266 -0.0015103348 0.01053095
-0.022504654 -0.017659862 0.0057094684 -0.0149114365 0.00512569 -0.0061528115 0.039588336 0.03560611
-0.03301418 -0.0018307373 0.016575603 0.026848651 -0.0017091029 -0.033285193 0.015442064 0.023755295
0.019380255 -0.017597727 0.026001133 0.03630115 -0.013557301 0.04029397 0.023578065 0.035028633
0.014413999 0.027790489 0.03479536 -0.036549516 0.007924719 0.0414547 0.046353597 -0.0013133124
0.02327871 0.006841602 -0.031152507 0.009550811 -0.011727536 -0.029813094 0.00519746 0.027893074
0.05740951 0.013092482 0.001548482 -0.003673793 0.003921993 0.045498997 -0.039215725 -0.008004611
-0.013526915 -0.019232208 -0.00846766 -0.032347757 -0.005348015 0.023916349 -0.032363005 -0.040140383
-0.04421787 -0.010792629 -0.03578581 -0.008612462 -0.03230548 -0.010978311 -0.0029755582 0.056121983
0.018080702 0.008747136 0.014308637 -0.026385019 0.035825506 0.0022820244 -0.014611268 0.013428423
-0.034540758 0.0037590119 -0.029773682 0.007172891 0.012162883 0.015566393 0.03495375 0.027850298
-0.025377274 -0.010393968 0.011402752 -0.005806432 0.027440965 -0.022724839 -0.02707176 -0.026185824
-0.014141962 -0.01699915 0.038428146 -0.023270972 0.009371259 0.0066992813 0.014643527 0.02177692

fc2.weight f4 [84, 120]
00000000: 12c2 a93d 1447 2abd d66d 7c3d 4d98 f73d
00000010: 552e 22bd 8de5 bbbd 622e 6f3d 10ec febd
00000020: c532 de3d 6831 40bc 5c22 6cbd f04b 963c
00000030: c46b 6c3c 001a 223d 29b6 9f3d 4e96 07bd
00000040: 444e 913d 9ae7 be3c f19c babc 9f58 22bc
00000050: 51dc 1f3d d96b bfbd 46cf 933c 909e 813d
00000060: 0da6 a93c ccd5 483c da27 9cbc 307c 103d
00000070: f8a1 0f3d 0f22 73bc 73ce 34bd 02c7 62bd
00000080: 8389 85bd 746b 0ebd 5abe 10bd 7dcd 70bd
00000090: b22a 163d e28e a33d 6ea2 7dbd 6751 f2bc
000000a0: 5c7b 953c e320 3a3c 13ce 8e3b a00e 143d
000000b0: 9b4a f43d 174e e83d 8816 0c3c 9527 0a3d
000000c0: a967 a03c 703c 53bd 933b 45bd 89ba b8bd
000000d0: f06a 1d3c ba09 de3d 8f5d 2bbc 8aa9 c3bc
000000e0: 7077 b8bc c063 ce3c a4b0 c73d e0db 213c
000000f0: df6c d33c 75b6 bc3c ba0f 12ba fe6a 0abd
00000100: 2f09 673b 6432 3ebd f9ed 6c3d c310 b83d
00000110: 617a bf3d 41c3 bb3d 71f9 ac3d 5190 9dbc
00000120: 6b1e 1a3d b437 88bd dc16 e53c d6d9 873d
00000130: 013b c8bc a941 a13d 127d 2ab9 0dfc 6abd
00000140: ac56 9cbd d254 f73c b6a6 993d acf4 1a3d
00000150: a7b8 6b3d 9940 a13d 77bb 50bd c78a 93bc
00000160: 656e 03bd c6d1 09bd b3b0 213d dbdf 88bc
00000170: 0759 8e3d 9ebd dd3d 40a9 3cbc f6dc 0abd
00000180: 8e80 603c eb37 873d 805f 3dbb 7fb9 54bd
00000190: 50ea d53d 9a11 c43b a29c a53d 0196 6ebc
000001a0: 080c b5bc e702 863c ea99 92bc 97f3 633d
000001b0: 4df2 73bd 8ab4 b83d 5401 07bd 9dc3 c53d
000001c0: 045b 1f3d 1931 123d 5e30 8b3b d359 41bd
000001d0: 2a0b 2fbd 70a6 81bd 170e 61bd 4e3e 813d
000001e0: 8cf6 2abd 0f56 823c ad27 b33c 6316 df3c
000001f0: 4ace d1bd 1ac2 683d 111a 75bd 38be 503d
00000200: 5924 6bbd 1059 72ba b05e 5e3c 62f9 06bb
00000210: 54b7 b0bc cb20 e7bd bbaf 523d 16be 98ba
00000220: 5a09 58bd fca5 7d3d 89c8 0c3d a97f c33c
00000230: c719 c5bc 83e4 7b3d d10e 0e3d fb40 9bbc
00000240: 6867 80bd 34c2 903d 7a99 753c 2bff a0bd
00000250: 75f6 bf3d 843e f33d 7ed2 1bbd ec13 c93d
00000260: fe98 8b3d 36b6 6cbc cfb6 9e3d c346 96bd
00000270: cb47 2cbd 8367 70bd 2858 8a3d 6e13 a43d
00000280: 6a63 6a3c 11d0 60bc 5e9b 0c3d 8e39 ba3d
00000290: 567d e73b 2860 2bbc c0f0 773d 44f2 fe3d
000002a0: cf87 4e3a 4000 2dbc f317 df3c a652 0abc
000002b0: 2692 98bc 2494 b43c 5234 313d 0c11 c1bc
000002c0: 8aa1 7e3d a9bb d0bd f50b c3bd ff5a 1b3b
000002d0: fd77 31bc aa68 9dbc 1c5c 8e3d b55b 743d
000002e0: ca76 3b3d b1a3 893d b816 9e3d 5cef ad3c
000002f0: d844 453c ee8a 983a 05bb 5cbd 7a51 643d
00000300: eb38 b7bc b4d5 28bb 3f94 3cbd ee1a 07be
00000310: b30c aebc 64c5 86bd 0a88 7e3d 4230 143d
00000320: 530b a13d 09ef a9bc 60de 42bd bee6 223d
00000330: baed 8ebd e37f 213d dc70 523d 4b11 043d
00000340: 8b4a a33d 8a1f c2bd 2955 38bd 72be 323a
00000350: 3b2f 0a3d cd93 7f3c 5d54 b0bd 4f12 de3c
00000360: 29d3 7a3d 8ec2 883d 97c7 34bd db62 4dbd
00000370: bbc3 94bd 6427 33bd a821 3f3d 2166 6d3d
00000380: ff34 513d e739 8ebd 100a 013c ed96 a63d
00000390: 5f7b 46bd 4835 9cbd e331 3b3d b308 84bc
000003a0: df1d 85bc 7f31 413d 49a6 c73d 6c2b 873d
000003b0: cfe4 8cbd 3aa5 61bd 40b1 fe3c 8f01 c63d
000003c0: 0a0a aa3d 8c24 0cbd 59f6 bcbc 9cec 223d
000003d0: 8c28 563c f116 983d dc07 00bb 63d8 a13d
000003e0: a71c e8bc 3ba2 19bd c825 813d e57e 743d
000003f0: 7fe9 84bc 7bfd 2a3d 6852 263d 2c8d 463d
0.08288969 -0.04157169 0.061628185 0.12089596 -0.039594967 -0.09174643 0.058393843 -0.12447369
0.10849527 -0.011730529 -0.057649955 0.018346757 0.01442999 0.039575577 0.07798416 -0.033102326
0.07095006 0.023303796 -0.022779914 -0.009908824 0.03902847 -0.09346742 0.018043172 0.063290715
0.020709062 0.012258004 -0.019061971 0.035274684 0.035066575 -0.014839663 -0.044142198 -0.05536557
-0.06520369 -0.034770444 -0.035337783 -0.05878972 0.03666181 0.07986237 -0.061922483 -0.029579831
0.018247299 0.01136038 0.004358062 0.03614676 0.11928292 0.113430195 0.008550294 0.033729155
0.019580679 -0.05157131 -0.048152518 -0.09019954 0.009608015 0.10841699 -0.010459318 -0.023884553
-0.02251789 0.025194049 0.097504884 0.009879082 0.02580875 0.023036221 -0.00055718014 -0.033793442
0.0035253277 -0.046434775 0.057844136 0.08987572 0.09349514 0.09168101 0.08446015 -0.019233854
0.037626665 -0.066512495 0.027965002 0.06633346 -0.024442198 0.07873852 -0.00016259056 -0.05736928
-0.07633719 0.030191813 0.07502501 0.037830994 0.057549145 0.07873649 -0.05096003 -0.01801051
-0.032087702 -0.03364732 0.039475154 -0.016708305 0.06950574 0.10827182 -0.011514962 -0.03390213
0.013702525 0.066024624 -0.0028896034 -0.051934715 0.10445082 0.0059835436 0.08086516 -0.014562131
-0.022100464 0.016358806 -0.017895658 0.055652227 -0.059557248 0.0901881 -0.03296025 0.09656451
0.03890516 0.035691354 0.004247709 -0.047204804 -0.042735256 -0.063305736 -0.054945078 0.06310712
-0.04173903 0.015910177 0.021869505 0.027232355 -0.10244425 0.056825735 -0.059839312 0.050962657
-0.05740771 -0.0009244839 0.01357238 -0.002059542 -0.021571793 -0.11285552 0.05143712 -0.001165333
-0.052743293 0.061925873 0.034370933 0.023864584 -0.024060143 0.061497223 0.0346821 -0.018951884
-0.06269723 0.07068291 0.014990205 -0.078611694 0.0937318 0.11877158 -0.038042538 0.09818253
0.0681629 -0.014447739 0.07749712 -0.073377155 -0.042060655 -0.058692466 0.06755096 0.080115184
0.014305929 -0.013721482 0.034327857 0.09093009 0.0070645018 -0.010459937 0.06053233 0.12448552
0.00078785134 -0.010559142 0.0272331 -0.0084425565 -0.018624377 0.022043295 0.043262787 -0.023567699
0.062165774 -0.10192043 -0.09523765 0.002370536 -0.01083183 -0.019214947 0.06951162 0.05965777
0.045767583 0.06720675 0.07719177 0.0212323 0.012040339 0.0011638084 -0.053889293 0.055741765
-0.022366008 -0.0025762143 -0.046039816 -0.13193867 -0.02124629 -0.06580618 0.062141456 0.036178835
0.07863488 -0.020743864 -0.047575355 0.039770834 -0.069789365 0.039428603 0.051377162 0.032243054
0.07973202 -0.09478672 -0.04500309 0.00068185397 0.03373645 0.015599203 -0.08609841 0.02710834
0.061236534 0.06677733 -0.044135656 -0.050143104 -0.07263895 -0.043738738 0.046662956 0.057958726
0.05107593 -0.06944638 0.007875934 0.081342556 -0.0484575 -0.0762735 0.045701873 -0.01611743
-0.016249595 0.047166344 0.09748513 0.06600079 -0.06879579 -0.055089213 0.031090379 0.09668266
0.08302696 -0.03421454 -0.023066686 0.03977643 0.013071191 0.07426251 -0.0019535935 0.079026006
-0.028333975 -0.03750823 0.06306034 0.05969133 -0.01622462 0.041745644 0.040605932 0.048474476

fc2.bias f4 [84]
00000000: afc0 0f3d ec99 c4bc fcc7 e43c 749f 01bc
00000010: c45d 9dbc cea1 cdbc 91fc 8cbc dc69 df3c
00000020: 162d 86bd 0cbb 5f3d 3813 67bc 03b6 0e3d
00000030: faed 70bd 1191 f53b 06fa 453d 2dae 7e3c
00000040: 7dfb 8f3d 1b1a b03d 5c5f 53bd f40a 2d3c
00000050: 6a5c 963d 8915 d43c b797 42bd 9f33 11bd
00000060: 4faa e6bc 0606 a73d 2b6c 633d 2771 983d
00000070: 39b8 303d 1b5b c7bc cb3a 363d 11db 843c
00000080: 07dd 6fbc e960 9d3d e64e c73c 1067 513c
00000090: fa89 703d 4f6d 8f3d 8f85 053d 095a 9abd
000000a0: 6873 083d c53a 1fbd de25 84bb 9d83 9b3d
000000b0: 163c 723d d10b a939 5702 0f3d c0e7 adbd
000000c0: f2cb 86bd 2a57 c8bd eb15 4fbd b62b adbd
000000d0: 994f 193a 2dcc ae3c 6f40 2b3c ebe6 883b
000000e0: 6348 243c ae6f c4bc 4d5b f03b 3047 883d
000000f0: 59ad a0bd f627 47bd 5e37 783d 1f7a c83c
00000100: 137e bd3d 9350 083b 61f9 9c3d 23b9 443d
00000110: 8d6c bebb 8a24 aa3d aa2d 983d 6897 f63a
00000120: 7c26 00bd 853d 9abd 3ceb adbd bf67 af3d
00000130: f65f 253d cb54 e0bd cad9 9ebd 2deb bd3d
00000140: 49ee b9bd 34a8 4bbd 96cf 36bc 2820 47bd
0.035095867 -0.023999177 0.027927391 -0.007911552 -0.01920975 -0.025101569 -0.017210277 0.027272157
-0.06551568 0.05462174 -0.014103703 0.03484155 -0.058820702 0.0074941 0.048334144 0.015544456
0.070303895 0.08598729 -0.051604614 0.010561693 0.07341845 0.025889175 -0.047507968 -0.03544962
-0.028157381 0.08155446 0.05552308 0.07443457 0.04314444 -0.024335435 0.044489663 0.01621774
-0.014640099 0.076845 0.024329614 0.01278092 0.058725335 0.07003271 0.032598075 -0.07536704
0.033313185 -0.038874406 -0.0040328344 0.075934626 0.059139334 0.00032242996 0.03491434 -0.084914684
-0.06581868 -0.0978225 -0.050558012 -0.08455603 0.0005848348 0.021337593 0.010452374 0.004177918
0.010027024 -0.023979034 0.0073351027 0.06654203 -0.078455634 -0.048622094 0.060599677 0.024472294
0.092525624 0.002079998 0.07664753 0.048028123 -0.00581128 0.083077505 0.07430585 0.0018813433
-0.0312867 -0.07531265 -0.08492133 0.0856471 0.04037472 -0.10953673 -0.07756384 0.09273372
-0.090786524 -0.049720958 -0.011157891 -0.04861465

fc3.weight f4 [66, 84]
00000000: 507c 27be 0f23 403d 2b84 03be 4834 43bd
00000010: c117 c33c 6186 273d 1c84 3dbd 6692 023d
00000020: 3b95 c33d d6ed 223d 71da 2bbe af3f f7bd
00000030: df33 a73d 5769 92bc 751c 58bd eba9 d3bd
00000040: 6674 07be 97d0 013e d976 8f3d d9f0 053c
00000050: 1ea3 f63d da04 76bc cadf c93d f603 d7bd
00000060: 9a89 01be aed0 b9bd 7e0e c03d 38c1 00bd
00000070: 20fe b83d a418 4abc a434 62bc 6fae aabd
00000080: d23c cc3d 297d e6bc 4e23 ee3d efb7 243d
00000090: a28a e63c cbd4 0fbe 0dec 54bc 29b7 973c
000000a0: bf74 0abe eee3 12be 4906 cabd dc62 0d3c
000000b0: 6289 b23d 9f9c e2bd 2da6 253d a6be 8bbd
000000c0: c9be 693b 213a bf3d 9c3e a33c 22ce a83d
000000d0: 6a3f 19bd 5464 be3d 82a9 05bd 895a 9c3d
000000e0: b6e7 c7bd 8edd dfbc e8bf ed3c 0ea6 9c3d
000000f0: 5a3a 19be 4c04 04be 2003 5b3d 3c39 8abb
00000100: b9a4 ae3c f11e 133d bfec 4b3a 8d61 9bbd
00000110: 17b7 e9bc 0a32 b03d 50f7 94bd b9cc f63c
00000120: fcd8 743c ed2e 6abc dd24 ef3c 8def 503c
00000130: b1f6 a53d b0e0 1fbd 3c7a 28bd dffb cf3d
00000140: dfff 0a3d ce6c 193d 90c7 133d ef6c 943d
00000150: 8eb6 ccbd 2cbe c6bd 838c 65bd 08f5 f8bb
00000160: 21e9 e03d 7479 7c3c 78c7 7e3d 99cb dd3d
00000170: cde2 2cbc 1a10 a9bc ec54 bcbc d382 183d
00000180: 70cb 173d c398 f3bd 41b0 563d f03b c63d
00000190: 684f f23c 7028 ac3c caba b73b a980 a6bd
000001a0: 6c17 e8bd ed76 ccbb 8869 8d3c 4d2d c23d
000001b0: d780 a43d 20e7 b1bc fd6f 933d 56da 5f3d
000001c0: 7dfb a13d fc3c 883d f899 48bd fe11 71bc
000001d0: 1103 563d ac56 8f3b df52 8cbd 548c f83c
000001e0: 6851 da3d 9608 abbd 4e7f 04be 72c0 bebd
000001f0: d362 06be 7753 c13c 00fe 96b6 4c2b cebd
00000200: b8d5 fdbd 8e97 733d 65e5 133d ee74 bbbd
00000210: 95c6 cdbd 5783 8ebd c291 153d 7877 89bd
00000220: ba40 78bd a89b 743d 9fd8 023d db92 e7bb
00000230: 4e82 9cbd 2a18 1b3d 15f4 6fbd 3816 ba3d
00000240: e489 8abd e01c 50bd e969 ffbd 5971 ad3d
00000250: 28fb 243c ea7d fd3d 130a 733d d51a de3d
00000260: ad05 82bb 8127 cc3d 3848 883b 65a0 8b3d
00000270: 6efe 28bd 885c c2bd 7b7c 003d fa25 fdbd
00000280: d9d7 b9ba 696b 93ba d92f 86bd b3b6 b13c
00000290: d2be 8bbd 00c0 9b3a 9611 0abd d0b2 123d
000002a0: 4bee 90bd e955 183d 268a edbd 0689 333d
000002b0: 10c3 92bd 416f 71bd ee10 ba3d 47e4 80bd
000002c0: 7d81 9ebc 5a62 e0bb 2fc3 d5bc 8e38 b9bd
000002d0: 1272 4b3d b9eb 63bd 5b82 123e ec34 b93d
000002e0: 30bc 4e3d 2c30 ce3c 3c32 75bb 9ee5 bb3d
000002f0: 3c7a 653d 301e c63c d21f df3d b6cc 7c3d
00000300: 1e23 adbd 9cb5 18bc 1b68 963c b6b3 833d
00000310: 56ee a63d de8c c23d 7f48 0b3e af77 9cbd
00000320: 9ca5 993d f17c ccbd d91a 153d 162e 803d
00000330: bf11 85bb 0135 1dbe 2693 f13c 13f3 edbd
00000340: 9813 bc3c 0026 69bd 7cfa a4bc e0c0 edbd
00000350: c04c d9bd d8ed a3bd 389f e4bd 1661 b13d
00000360: df8a fbbd 0b15 5dbd b245 023d e1af a43d
00000370: 2061 09be f225 883d 5cb1 233e d0f8 c93d
00000380: ea95 fbbc 8318 08be e55e b63c 89b7 73bb
00000390: 1fc8 bebd baf3 593d c9b7 9ebd 4439 17be
000003a0: 8411 38bd 087e 0ebe 3d31 a13d 98ec 6cbd
000003b0: 7c99 083c 700d 883d 5ff9 e1bd 30b4 d5bd
000003c0: 7535 e3bc 53a9 23bd 605b a23b b7b8 a4bc
000003d0: 8564 d7bc e85b 023e 1925 ddbd b805 913d
000003e0: ef7d 1c3d c450 c13c bca8 02be 744b 70bd
000003f0: fa37 a73d 067c 36bd a2e3 34bc 8392 c03d
-0.16356015 0.046908434 -0.12843387 -0.04765728 0.023815038 0.040899638 -0.046268567 0.031877898
0.09549948 0.0397776 -0.16782548 -0.120726936 0.081641905 -0.017872496 -0.052761514 -0.10335144
-0.13227996 0.12677227 0.0700509 0.008175098 0.12042831 -0.015015805 0.098571375 -0.10498802
-0.12650147 -0.090730056 0.09377764 -0.031434268 0.090328455 -0.012334976 -0.013806496 -0.08334052
0.09972538 -0.028135853 0.116278276 0.040214475 0.028142277 -0.14046018 -0.012995732 0.018519955
-0.13521098 -0.14344761 -0.0986448 0.008629527 0.0871761 -0.11065029 0.04044168 -0.06823473
0.0035666695 0.09337259 0.019927315 0.08242442 -0.037413992 0.0929648 -0.03263236 0.07634456
-0.09760992 -0.027327325 0.029022172 0.0764886 -0.14963666 -0.12892264 0.053469777 -0.0042182487
0.02131878 0.03591818 0.00077791134 -0.07586966 -0.028529687 0.08603294 -0.072737336 0.030126916
0.014944311 -0.014293415 0.029192382 0.012752426 0.08103693 -0.039032638 -0.041132197 0.101554625
0.033935424 0.03745728 0.03607899 0.0724734 -0.09995757 -0.09704241 -0.056042206 -0.0075975694
0.10981966 0.015409816 0.062201947 0.10829849 -0.01055212 -0.02063756 -0.022989713 0.03723414
0.037059247 -0.11894371 0.052414183 0.09679401 0.02957888 0.021015376 0.005606984 -0.08130009
-0.11332592 -0.006239763 0.017262235 0.09481297 0.08032387 -0.021716654 0.071990944 0.05465158
0.07909296 0.06652257 -0.04897496 -0.014713762 0.052249018 0.0043743458 -0.06851744 0.030340351
0.10660058 -0.08351247 -0.12939188 -0.0931405 -0.13123636 0.02359937 -4.499918e-06 -0.10066852
-0.12394279 0.059470706 0.03610744 -0.09153162 -0.10047642 -0.06958645 0.03651596 -0.0671224
-0.060608603 0.059718758 0.031944867 -0.007067067 -0.07642041 0.03786484 -0.058582384 0.09086269
-0.06764582 -0.050808787 -0.12471373 0.08468885 0.010069646 0.12377532 0.05933578 0.108449616
-0.0039679618 0.09968472 0.004159 0.06817702 -0.041258268 -0.09490305 0.031368714 -0.12360759
-0.0014178707 -0.0011247221 -0.06552095 0.021693563 -0.068235055 0.0011882782 -0.033708178 0.03581506
-0.07076701 0.037191305 -0.11598615 0.043831848 -0.071661115 -0.05894399 0.0908526 -0.062935404
-0.019348854 -0.006847662 -0.026094047 -0.0904399 0.049669333 -0.055644725 0.14307539 0.09043297
0.05047244 0.025169455 -0.0037413975 0.091746554 0.056024775 0.024184316 0.10894741 0.061718665
-0.08453964 -0.009320643 0.018360188 0.064307615 0.08150928 0.094995245 0.13601874 -0.07640015
0.075022906 -0.09984768 0.036402557 0.0625879 -0.0040609534 -0.1535225 0.029489111 -0.11618628
0.022958562 -0.056921005 -0.020138972 -0.116090536 -0.10610342 -0.080043495 -0.11163181 0.08661096
-0.12282347 -0.053975146 0.031804748 0.08041359 -0.13415956 0.066478625 0.15985626 0.0986191
-0.030711133 -0.132906 0.022262046 -0.0037188253 -0.09315514 0.05321095 -0.07749898 -0.14767939
-0.04493858 -0.13915265 0.078707196 -0.05784282 0.008337375 0.06643188 -0.11033892 -0.10434759
-0.027735451 -0.039956402 0.0049547404 -0.02010761 -0.026293049 0.12730372 -0.107980914 0.07081169
0.038206037 0.023598082 -0.1275968 -0.058665708 0.081649736 -0.04455187 -0.0110406 0.09402945

fc3.bias f4 [66]
00000000: 79b2 703c e9d9 46bc e495 59bc 75f9 47bd
00000010: 119f 3ebd df0d 753c cf36 c03b 8cf2 f7bd
00000020: 6385 603d 8af5 c83c 8325 48bd 2fc2 85ba
00000030: c936 94bd 11b1 cabd 2aed 083c 7d52 493d
00000040: c88f 99bc a2f7 413d f9f0 793d 473c 9eb9
00000050: 6402 08be db37 bf3d ad93 93bc f2e8 ea3c
00000060: bd21 e93d 663a 8cbc 2dc7 bd3d 4072 c7bd
00000070: dd33 eebc 67b4 3c3d 5f3d dcbc 858d 9a3d
00000080: 401e 373d d61b aa3d 98f8 513d bc12 93bd
00000090: 319e b6bc a3bc e0bd 41ef 5abc 31bb b43d
000000a0: c10d b13d bf3c 53bd b95e a1bd e26d 813d
000000b0: d847 78bd 6c9c 68bd b4a9 783d df69 a9bd
000000c0: c97e 353d eee4 003d 2f91 98bd a659 d23d
000000d0: 155e 0b3c 73ad 78bd 0bc8 a03b db29 903d
000000e0: 7e47 ec3d c905 d83d ccf7 3c3d 1c1c 833d
000000f0: 3548 953d da7b 7b3d 71b0 e1bd fbcf ad3d
00000100: c206 50bc de6f 103e
0.014690989 -0.012136915 -0.013280366 -0.048821885 -0.046538416 0.01495692 0.0058659087 -0.12106809
0.054814707 0.024531145 -0.0488639 -0.0010204966 -0.07237012 -0.09897054 0.008357326 0.049150933
-0.018745318 0.0473553 0.061020825 -0.00030181019 -0.13282162 0.093368255 -0.018014753 0.02867553
0.11383388 -0.01711769 0.092665054 -0.09738588 -0.029077465 0.046070483 -0.026884733 0.07546524
0.044706583 0.083060905 0.051262468 -0.07181308 -0.022292228 -0.109734796 -0.013362707 0.088247664
0.086452015 -0.051571604 -0.07879395 0.063197866 -0.06061539 -0.0567898 0.060708717 -0.082721464
0.044310365 0.031468324 -0.074495666 0.10271005 0.008506318 -0.06071229 0.0049066595 0.07039233
0.115370736 0.105479784 0.046134755 0.06401846 0.07289163 0.06139741 -0.11019982 0.08486935
-0.012696924 0.14105174
