Leng1.pth (torch, 506543 bytes, 10 tensors)

conv1.weight f4 [16, 3, 5, 5]
0	0x3dfe29f7	0.12410348
1	0x3e26ce95	0.16289742
2	0x3de9a47a	0.114083245
3	0xbd26c5a8	-0.040715843
4	0x3d80f0ce	0.0629593
5	0x3d835655	0.06412951
6	0x3dad88ec	0.084733814
7	0x3e0cad21	0.13737918
8	0x3d76dfc5	0.060271997
9	0xbcab3cdb	-0.020903042
10	0x3e0169c2	0.12638
11	0x3e053818	0.1300968
12	0x3d993f09	0.07482726
13	0x3bc14e10	0.0058991984
14	0x3dd46814	0.10371414
15	0x3d6c23dd	0.05765139
16	0x3e371035	0.17877276
17	0x3c221d44	0.009894673
18	0x3ab7be59	0.001401852
19	0xbd3c0c2a	-0.045910038
20	0x3e282630	0.16420817
21	0x3da81dcd	0.08208809
22	0x3de9292a	0.113848045
23	0x3d01ae75	0.031660516
24	0x3deab61c	0.11460516
25	0x3dcdd532	0.100504294
26	0xbd1c4ecf	-0.038161095
27	0x3dad7b20	0.0847075
28	0x3da02ed9	0.078214355
29	0xbd7516d8	-0.05983624
30	0x3da1e218	0.07904452
31	0x3dea467e	0.114392266
32	0x3e090be5	0.13383444
33	0x3d787fe9	0.06066886
34	0xbd66c3eb	-0.056339186
35	0x3dbf33b5	0.09336034
36	0x3e2ea911	0.17056681
37	0x3dd3ac76	0.10335629
38	0x3e1c7adf	0.15281247
39	0x3d77523f	0.06038117
40	0x3dc42e12	0.095791
41	0x3da7aac0	0.08186865
42	0x3e152cb1	0.1456783
43	0x3d3cadf1	0.04606432
44	0xbbd144f1	-0.0063863923
45	0x3c9c528c	0.01908233
46	0x3c859cca	0.016310114
47	0x3e2b2c9e	0.16716239
48	0xbb4a84f5	-0.0030902002
49	0x3d5e522c	0.054277584
50	0x3e24f021	0.16107227
51	0xbc0baad3	-0.008524614
52	0xbc837613	-0.016047513
53	0x3d64b51e	0.05583679
54	0xbd45f0cf	-0.048325356
55	0x3e2f47ff	0.17117308
56	0x3dc7dfef	0.09759509
57	0xbc7d6b2d	-0.015467447
58	0x3d41ad47	0.04728439
59	0xbda50356	-0.08057277
60	0x3d66a239	0.05630705
61	0x3df4473e	0.11927651
62	0x3d8b3066	0.06796341
63	0x3df75b79	0.12077994
64	0xbcd248f2	-0.025669549
65	0x3dbaafc6	0.091155574
66	0xbcb1e818	-0.021717116
67	0xbd0444da	-0.032292224
68	0x3e2e915d	0.17047639
69	0xbd008efd	-0.031386364
70	0xbc1c36e7	-0.009534574
71	0x3d2e0f2f	0.04249495
72	0xbcf45e52	-0.029830132
73	0x3d82ba97	0.063832454
74	0x3def54f0	0.116861224
75	0xbdb9772e	-0.09055935
76	0x3d6665bf	0.056249376
77	0xbd7fcf92	-0.062453814
78	0xbc90e65d	-0.01768797
79	0xbd6f1b7e	-0.058375828
80	0x3cc44d16	0.023962539
81	0xbdf45e9e	-0.11932109
82	0xbe135046	-0.1438609
83	0xbde2dab8	-0.110768735
84	0x3d287f2b	0.0411369
85	0xbd9b23fd	-0.075752236
86	0xbd1c447b	-0.038151246
87	0xbd607445	-0.054798383
88	0xbdbf9fbf	-0.09356641
89	0x3cd09613	0.025462186
90	0xbb3fd661	-0.0029272067
91	0x3d48992f	0.048974212
92	0xbccd1db1	-0.025038572
93	0x3c82050e	0.01587155
94	0xbd57fd9d	-0.0527321
95	0x3e2799f3	0.1636732
96	0x3d1bc0df	0.038025733
97	0x3e274e09	0.16338362
98	0x3e040fff	0.12896727
99	0x3db74257	0.089482
100	0xbaca1fac	-0.0015420816
101	0x3cfea8d8	0.03108637
102	0xbe16a925	-0.14712961
103	0x3d2ed199	0.042680357
104	0xbe0952db	-0.13410513
105	0xbde1f0ae	-0.11032234
106	0xbd6c3663	-0.057669055
107	0xbcd4df33	-0.025985336
108	0xbe25c52f	-0.16188501
109	0xbd93e4f1	-0.072214015
110	0x3d642220	0.055696607
111	0x3daea232	0.0852703
112	0x3d98acd8	0.07454842
113	0xbd429f5c	-0.04751526
114	0x3db099e6	0.08623104
115	0x3d7867aa	0.060645737
116	0xbca3ff09	-0.020019071
117	0x3d943cde	0.07238172
118	0x3e0fe662	0.14052728
119	0x3e108cbe	0.14116189
120	0x3da53720	0.08067155
121	0x3c824fdb	0.015907219
122	0xbd368507	-0.04456046
123	0x3e2cbebe	0.16869637
124	0x3cd0fe4d	0.025511885
125	0xbcb0bb68	-0.021573737
126	0x3dbaa66f	0.09113776
127	0x3d92d9ee	0.07170473
128	0x3d75f981	0.0600524
129	0xbd89ee9f	-0.067349665
130	0x3c688da5	0.014193927
131	0x3bfa355d	0.007635756
132	0xbe1b4334	-0.15162355
133	0xbc57efac	-0.013179701
134	0xbde4ea71	-0.11177529
135	0x3dbe74e3	0.09299638
136	0x3ccee874	0.025257327
137	0xbd3ac9fd	-0.045602787
138	0xbe0a4ad4	-0.13505107
139	0x3c01ad5a	0.007914865
140	0x3b21bc9c	0.002467907
141	0xbd57301b	-0.05253611
142	0xbd41ce8e	-0.047316127
143	0xbd56ddf7	-0.052457776
144	0x3c992fb2	0.0186995
145	0x3d9624e2	0.073312536
146	0x3c884210	0.016633064
147	0xbc3dc91c	-0.011583593
148	0xbc8c718d	-0.017143989
149	0x3d86d8fd	0.06584356
150	0xbc965a52	-0.018353615
151	0xbcbf3bc1	-0.023343923
152	0xbd780ed4	-0.060561016
153	0xbd650f5d	-0.055922855
154	0xbda42a5c	-0.08015892
155	0x3e1a5c0a	0.15074173
156	0x3ba1b10a	0.004934435
157	0x3e0686ea	0.13137403
158	0x3c2f35cb	0.010693978
159	0xbd20665c	-0.039160118
160	0x3db94d34	0.090479285
161	0x3d12da78	0.03585288
162	0x3d8a86a0	0.06763959
163	0xbd2cdb6f	-0.042201456
164	0x3c4c83d7	0.012482605
165	0x3e0813c0	0.13288784
166	0x3e30bc8d	0.17259426
167	0x3e0e1f3b	0.13879101
168	0x3d3f8535	0.046757895
169	0xba10605c	-0.0005507523
170	0xbcfa9ea5	-0.030593226
171	0x3c40d24e	0.011768891
172	0x3d147539	0.036244605
173	0x3ba79fb1	0.0051154722
174	0x3d6d7cd3	0.05798037
175	0x3dca509d	0.09878657
176	0x3da7281c	0.08161947
177	0x3df78103	0.12085154
178	0x3d18cfa2	0.03730739
179	0x3d07cd81	0.03315497
180	0x3dbb1910	0.0913564
181	0x3e0c8a62	0.13724664
182	0x3c379cde	0.011206834
183	0xbb55575c	-0.003255329
184	0xbd44e4ee	-0.048069887
185	0x3d69b2e6	0.057055376
186	0x3e2ad219	0.16681708
187	0xbceb9c8b	-0.028761169
188	0xbbc2f507	-0.0059496197
189	0x3c57f2b9	0.013180428
190	0x3e26b46c	0.16279763
191	0x3cfaec61	0.030630292
192	0x3dd2f30c	0.10300264
193	0x3e208ec4	0.15679461
194	0xbcc81045	-0.02442182
195	0x3d41c0dd	0.04730307
196	0x3e059da9	0.13048424
197	0x3e0d382f	0.13790964
198	0xbd2450f6	-0.040116273
199	0xbbe2cbe1	-0.006921277
200	0x3d9365e4	0.071971685
201	0x3d947452	0.07248749
202	0x3e1d0806	0.15335092
203	0x3d16ca6b	0.036814135
204	0x3db119b0	0.086474776
205	0x3d2ecfca	0.04267863
206	0x3bb2c5a6	0.0054556904
207	0x3d016ccf	0.03159791
208	0x3d7c230c	0.06155686
209	0x3d816cc4	0.063195735
210	0x3e223cca	0.15843502
211	0xbd17f3e0	-0.03709781
212	0x3decc460	0.11560893
213	0x3dc6acbc	0.09700915
214	0xbc398c55	-0.011324962
215	0x3e00bdc8	0.12572396
216	0x3e200bde	0.15629527
217	0x39c8a495	0.00038269596
218	0x3c75a77b	0.014993544
219	0xbd9c4661	-0.07630611
220	0x3daee5e5	0.08539943
221	0x3da76db4	0.08175221
222	0x3df090db	0.11746379
223	0x3e0ffe9f	0.14061974
224	0x3d78b832	0.060722537
225	0x3de1b540	0.11020899
226	0xbcc72358	-0.024308845
227	0xbccf71ba	-0.025322784
228	0x3cb9d80d	0.022686029
229	0x3df0bb49	0.11754472
230	0xbd66098c	-0.05616145
231	0xbd3b6d0f	-0.045758303
232	0xbce53001	-0.027976992
233	0x3e02e4ad	0.12782545
234	0x3dc04f1b	0.09390088
235	0x3ddb1c75	0.10698787
236	0x3da2c046	0.079468295
237	0x3e250873	0.16116504
238	0x3e068f4b	0.131406
239	0x3e2a354e	0.16621897
240	0xbb92e9e0	-0.0044834465
241	0x3e0ef1ed	0.13959475
242	0x3b80f443	0.0039353683
243	0x3de08fd8	0.10964936
244	0xbca5339b	-0.020166209
245	0x3dbb7d1a	0.091547206
246	0xbcee05be	-0.029055472
247	0x3e21b251	0.15790679
248	0x3d66777e	0.0562663
249	0x3ca67e47	0.020323886
250	0x3d992b19	0.07478923
251	0x3d9028cd	0.07039032
252	0x3e11f891	0.14254977
253	0x3d17e284	0.037081257
254	0x3e09f737	0.13473211
255	0x3dae7305	0.08518032

conv1.bias f4 [16]
0	0x3d41280e	0.04715734
1	0x3d813fdb	0.063110076
2	0x3c6846fa	0.014177078
3	0xbc5e5514	-0.013570089
4	0x3d3751ec	0.04475586
5	0x3dd9a71f	0.10627579
6	0xbad7858c	-0.0016442998
7	0xbd404436	-0.04694005
8	0xbc85690c	-0.016285442
9	0xbd53cbd9	-0.051708076
10	0x3d4102fd	0.04712199
11	0x3d632f4c	0.055465028
12	0xbbd17238	-0.0063917898
13	0xbacc6d09	-0.001559646
14	0x3dcace2b	0.09902605
15	0x3d94de51	0.07268966

conv2.weight f4 [32, 16, 5, 5]
0	0x3db7fda6	0.089839265
1	0x3d6679e0	0.056268573
2	0x3d2336b4	0.03984709
3	0x3dafec23	0.085899614
4	0x3c926236	0.017869096
5	0x3b04ba4f	0.002025265
6	0xbc193aad	-0.009352368
7	0x3d12d689	0.035849128
8	0x3d9b0e9e	0.075711474
9	0x3ca403fd	0.020021433
10	0x3cb6c50e	0.02231076
11	0xbd47eaa7	-0.048807766
12	0xbd6118b9	-0.054955218
13	0x3d3e6365	0.04648151
14	0x3d655fa4	0.055999413
15	0xba9e535d	-0.0012079288
16	0xbd42bc03	-0.047542583
17	0xbd635744	-0.055503145
18	0x3d4251ea	0.0474414
19	0x3d9d5f75	0.076842226
20	0xbd278470	-0.040897787
21	0xbcc20095	-0.023681918
22	0xbc3adf00	-0.011405706
23	0x3d65e5b6	0.056127273
24	0x3c9bb5f7	0.019007666
25	0xbe0ed5ec	-0.13948792
26	0xbd1dbeef	-0.038512167
27	0xbbeacd3d	-0.0071655796
28	0xbcb61289	-0.022225635
29	0x3db5a9df	0.08870291
30	0xbcb8e476	-0.022569876
31	0x3c00fc26	0.007872617
32	0xbcab2c5e	-0.02089518
33	0xbc15cbf2	-0.009142863
34	0x3c3e85da	0.011628592
35	0xbcd4df24	-0.025985308
36	0xbb4c4967	-0.003117168
37	0xbdbc6bc0	-0.09200239
38	0xbc521e19	-0.012824559
39	0x3d44c50c	0.04803948
40	0x3d859b23	0.065237306
41	0xbd71b2d9	-0.059008453
42	0xbe0ae455	-0.13563664
43	0xbdd13f26	-0.10217123
44	0x3d1c9bab	0.038234394
45	0x3d3a07f4	0.04541774
46	0xbd91ae39	-0.071133085
47	0xbe05e352	-0.13074997
48	0xbdc76c83	-0.09737494
49	0x3d54f273	0.05198903
50	0x3ca11421	0.019662919
51	0x3dc44de9	0.09585173
52	0xbb1be266	-0.0023786067
53	0x3da6af08	0.08138853
54	0x3d107480	0.035267353
55	0x3d8c609b	0.068543635
56	0x3c4165a6	0.01180402
57	0x3d45574f	0.048178967
58	0x3d6b3b38	0.057429522
59	0x3d92b5cb	0.071635805
60	0xbbe1522c	-0.0068762507
61	0x3cb0681d	0.02153402
62	0xbd9ec8fb	-0.07753178
63	0x3cd0621a	0.025437403
64	0x3d9b0ae2	0.07570435
65	0x3c9a8693	0.018862998
66	0xbcef8df3	-0.029242491
67	0xbd4c739c	-0.04991494
68	0xbc664fc0	-0.0140571
69	0x3d8aba32	0.06773795
70	0xbda68aa6	-0.08131914
71	0xbd784124	-0.060608998
72	0xbcc38abe	-0.023869868
73	0x3cebe8ce	0.028797533
74	0x3c835643	0.016032344
75	0x3d86dc70	0.06585014
76	0x3db4b96b	0.08824428
77	0x3a405e6d	0.0007338289
78	0x3c4e0a43	0.012575689
79	0xbd9471d7	-0.07248276
80	0x3cd3458d	0.02579
81	0x3ce71fac	0.028213345
82	0x3c142aa1	0.009043367
83	0x3cf9a79e	0.030475434
84	0xbccc47cf	-0.024936585
85	0x3c64bb34	0.013960648
86	0x3c31e2ba	0.0108572785
87	0x3c277f50	0.010223225
88	0x3cff0ae8	0.03113313
89	0xbcc485f8	-0.023989663
90	0x3bdb1805	0.006686213
91	0xbc42c456	-0.01188763
92	0x3cbad1d4	0.022805132
93	0x3cf45dad	0.029829824
94	0x3d9aab24	0.07552174
95	0xbd59ac6d	-0.053142954
96	0xbdc125f0	-0.09431064
97	0x3b8287f3	0.0039834916
98	0x3d463040	0.04838586
99	0xbc88e584	-0.016711004
100	0x3cd1ad00	0.025595188
101	0x3d227787	0.03966477
102	0x3d72b846	0.059257768
103	0x3d018a8a	0.03162626
104	0x3cc0b1bc	0.02352225
105	0x3da20376	0.07910816
106	0x3d76862a	0.060186543
107	0xbd2ad9b7	-0.041711535
108	0x3d852464	0.065010816
109	0x3d71990c	0.058983847
110	0x35dae140	1.6307822e-06
111	0x3c58be7b	0.013229008
112	0xbd153c12	-0.03643424
113	0x3abc1dcc	0.0014352142
114	0x3bf4bfa7	0.007469136
115	0xbcd9bb40	-0.026578546
116	0xbd819c3a	-0.06328626
117	0xbd43baf9	-0.047785733
118	0x3d61e2ec	0.05514805
119	0x3d6b5956	0.057458244
120	0xbb2ac47e	-0.002605706
121	0xbc0aacc4	-0.008464042
122	0xbd6215ac	-0.05519645
123	0x3d13f2b7	0.036120143
124	0x3c27d927	0.010244644
125	0x3d6e20df	0.058136817
126	0x3bd7e227	0.0065882388
127	0x3c6cc52c	0.014451306
128	0x3cb7d80b	0.022441885
129	0xbcdc0962	-0.026859943
130	0x3ca42d2f	0.020041076
131	0x3c390c98	0.0112945065
132	0x3d2ceeca	0.042219914
133	0x3cee71c2	0.029106978
134	0x3ccd789f	0.02508193
135	0xbd89896a	-0.06715663
136	0xbd7ba54d	-0.06143694
137	0x3ca6f53b	0.020380607
138	0x3d8aea57	0.06782978
139	0xbb753aa1	-0.0037418979
140	0xbd9de95b	-0.07710525
141	0xbd7b57be	-0.061362974
142	0x3d343b2e	0.04400175
143	0x3d082b84	0.033244625
144	0xbcc24a4a	-0.023717064
145	0xbda07da0	-0.07836461
146	0xbce30666	-0.027713012
147	0xbc756048	-0.0149765685
148	0x3d6d1deb	0.05788986
149	0x3d5513b9	0.052020762
150	0x3c16764f	0.00918348
151	0xbb62dd34	-0.003461671
152	0x3d80adb1	0.06283129
153	0x3d0ff9c7	0.035150316
154	0xbd367ae0	-0.044550776
155	0x3d5514a3	0.052021634
156	0xbbfe38ee	-0.0077582514
157	0x3d9ae074	0.07562342
158	0x3c4f9f6c	0.0126722865
159	0xbd148042	-0.03625513
160	0x39fa56f0	0.0004774849
161	0x3ca2e224	0.019883223
162	0x3da9f0ca	0.0829788
163	0x3d1ed1c7	0.038774278
164	0x3c32deb6	0.010917356
165	0xbc956e3a	-0.018241037
166	0xbd413f03	-0.047179233
167	0x3d473bd1	0.04864103
168	0x3dc4aa50	0.09602797
169	0x3ceb7200	0.028740883
170	0xbda18baa	-0.07887967
171	0xbdc24911	-0.094865926
172	0x3d77b126	0.060471676
173	0x3dbdaa25	0.09260968
174	0x3d7b9e49	0.06143025
175	0x3d126e88	0.035749942
176	0x3c59ac40	0.0132856965
177	0x3d2dc801	0.042427067
178	0x3d961f13	0.07330146
179	0x3d32f4c0	0.043690443
180	0x3c8601a3	0.016358202
181	0x3d23fc1b	0.04003535
182	0xbc9baa40	-0.01900208
183	0xbc30825f	-0.01077327
184	0xbcfd3893	-0.030910766
185	0xbd8ac502	-0.067758575
186	0xbd08bcbc	-0.033383116
187	0x3c3ebf1f	0.0116422465
188	0x3c328fb6	0.010898521
189	0x3d8935e5	0.06699733
190	0xbd5e91b0	-0.054338157
191	0xbd7a195d	-0.061059345
192	0xbd9d5991	-0.07683099
193	0x3cace820	0.02110678
194	0x3cf20348	0.02954258
195	0xbd71e8e2	-0.059059985
196	0xbd976ee5	-0.07394198
197	0xbd4f355a	-0.05058799
198	0x3d8a6f64	0.06759527
199	0x3d6d1190	0.057878077
200	0x3d97b531	0.074076064
201	0x3c99a8e7	0.018757297
202	0x3d814a0f	0.06312954
203	0x3bb56426	0.0055356203
204	0xbe06ee48	-0.13176835
205	0x3ca9c57d	0.020724053
206	0xbd61a4f7	-0.055088963
207	0x3d556b73	0.052104425
208	0x3d5376b9	0.051626895
209	0xbdf0bb9c	-0.11754534
210	0xbd3dbe40	-0.046324015
211	0xbc9f60b6	-0.019455295
212	0x3cbe9cca	0.023268122
213	0x3d15081f	0.036384698
214	0xbd272c43	-0.040813696
215	0xbd596390	-0.053073466
216	0xbc6ab98f	-0.014326467
217	0x3d526bcd	0.051372338
218	0x3ceb3157	0.02871005
219	0xbc0e1b7c	-0.008673545
220	0xbb517e61	-0.0031966197
221	0xba1534cd	-0.0005691767
222	0x3c0ea057	0.00870522
223	0x3d1c7c72	0.038204618
224	0xbd90c6c8	-0.070691645
225	0x3c9013cc	0.017587565
226	0x3d5823b9	0.052768443
227	0x3d95e634	0.073192984
228	0xbb2d080a	-0.0026402497
229	0xbcca795f	-0.024716077
230	0x3db1ebba	0.086875394
231	0x3d279f99	0.04092369
232	0x3d19247d	0.037388314
233	0x3d1f5967	0.03890362
234	0xba252457	-0.00062996655
235	0x3c9c462f	0.019076435
236	0x3d967121	0.073457964
237	0xbc40c1a9	-0.011764922
238	0x3d8accf9	0.06777377
239	0xbc453846	-0.012037342
240	0xbcd1dc9e	-0.025617894
241	0xbd718fa4	-0.058974877
242	0xbca55bbd	-0.020185346
243	0x3c922295	0.017838756
244	0xbc3e7e74	-0.011626828
245	0xbd499856	-0.049217544
246	0x3c21d8f5	0.009878387
247	0xbd8ca09c	-0.06866571
248	0x3d302ae4	0.043009654
249	0x3c2e33d4	0.010632474
250	0x3d8e1693	0.069378994
251	0x3d0a147e	0.03371095
252	0x3d6ec063	0.058288943
253	0xbc1cfccb	-0.009581755
254	0xbdbd4dfd	-0.09243391
255	0xbc9b5497	-0.018961234

conv2.bias f4 [32]
0	0xbcbddc6f	-0.0231764
1	0x3d4fc842	0.05072809
2	0x3d82d248	0.06387764
3	0x3c3a14f5	0.011357536
4	0xbb840c19	-0.0040297625
5	0xbd207e5b	-0.039183002
6	0x3d4e179e	0.05031549
7	0x3b73873d	0.0037159466
8	0xbc4f3840	-0.012647688
9	0x3a386156	0.0007033547
10	0xbc770e7a	-0.015079135
11	0xbc7f1938	-0.015569977
12	0x3d08a69e	0.033362024
13	0x3bd89709	0.0066098017
14	0x3b8784bd	0.0041356967
15	0xba56af3f	-0.0008189566
16	0x3d0dda62	0.034632094
17	0x3d3c5adb	0.045985084
18	0x3cf0d9bb	0.029400697
19	0xbcb0ddd9	-0.02159016
20	0xbc705d5f	-0.014670699
21	0xbd231d51	-0.03982288
22	0xbd687942	-0.056756265
23	0xbd5a82fe	-0.05334758
24	0x3ceeb341	0.02913821
25	0xbc2f0a1b	-0.010683562
26	0x3d350fbe	0.044204466
27	0xbd30bfb1	-0.04315156
28	0x3c65315c	0.013988819
29	0x3cf612f9	0.030038344
30	0x3d2d5913	0.042321276
31	0xbd5bf12a	-0.05369679

fc1.weight f4 [120, 800]
0	0x3c9ebdb2	0.019377563
1	0x3d10925a	0.03529582
2	0xbc02fbd0	-0.007994607
3	0xbb74bb26	-0.0037342994
4	0xbd428c5e	-0.047497146
5	0xbbf3212f	-0.0074197273
6	0xbb69ed40	-0.003569439
7	0x3cefb1c9	0.02925958
8	0x3ca21516	0.019785445
9	0x3cc84a12	0.024449382
10	0x3c9d3a3e	0.019192811
11	0x3bb637f6	0.0055608703
12	0x3c308185	0.010773067
13	0x3d1eb6dd	0.03874861
14	0x3b0131bd	0.0019713484
15	0xbcdecea1	-0.027198138
16	0xbc7a8689	-0.015290865
17	0x3d051145	0.032487173
18	0x3cb0b5d7	0.021571083
19	0x3c54d21e	0.012989549
20	0xbc25a0e7	-0.010109163
21	0x3c2b8538	0.010468774
22	0x3d184122	0.03717149
23	0xbb886008	-0.0041618384
24	0x3d13a4b7	0.036045756
25	0x3c7e7e86	0.015533095
26	0xbcc81670	-0.024424762
27	0x3acb0db1	0.0015491751
28	0xb93178b4	-0.00016925001
29	0x3bcb1306	0.006197336
30	0x3caf2825	0.021381447
31	0x3c1ebed6	0.0096890535
32	0x3c3ee254	0.0116506405
33	0x3d34d115	0.04414471
34	0x3d0e0ed5	0.034682114
35	0xbc89b78f	-0.01681116
36	0x3c507ee6	0.012725567
37	0xbcd460b3	-0.025925016
38	0x3d308894	0.043099
39	0x3cee780c	0.029109977
40	0x3d3062c5	0.043062944
41	0x3bda48ce	0.006661511
42	0xbc50af18	-0.012737058
43	0x3b232cd8	0.0024898555
44	0xbcb04353	-0.021516478
45	0x3c8881aa	0.016663391
46	0x3c9876c6	0.018611323
47	0x3cfedef7	0.031112177
48	0x3cb79d83	0.022413975
49	0xbb3f6bff	-0.0029208658
50	0x3b2a00c0	0.0025940388
51	0xbd152793	-0.036414694
52	0x3cdda8f8	0.02705811
53	0xbcd79886	-0.026317846
54	0x3d076d4a	0.03306321
55	0x3b681d10	0.0035417713
56	0xbc47317d	-0.012157795
57	0xbaa4a522	-0.001256142
58	0x3d251888	0.040306598
59	0x3da8137d	0.08206842
60	0x3d55452a	0.052067913
61	0x3b7a345e	0.0038178186
62	0x3a2283c2	0.0006199443
63	0x3cafc05a	0.021454025
64	0x3d908009	0.07055671
65	0xbb0bb20d	-0.0021315843
66	0x3c970a19	0.018437432
67	0xbce58444	-0.02801717
68	0xbd2be7dd	-0.04196917
69	0x3c2b1b04	0.010443453
70	0xbb9e5e38	-0.004833009
71	0x3cf21035	0.029548744
72	0xbaa2d0ac	-0.0012421808
73	0xbce0d3d9	-0.027444767
74	0xbc183a82	-0.009291293
75	0xbcc4903c	-0.023994558
76	0xbc0e13bb	-0.008671696
77	0xbd376ff6	-0.04478451
78	0x3abce22a	0.0014410664
79	0xbd9e3a7e	-0.07726
80	0x3c19e8f2	0.009393917
81	0xbb42a9a6	-0.002970317
82	0xbcfd332f	-0.030908195
83	0x3b45219f	0.0030079854
84	0xbd581660	-0.052755713
85	0x3c55aeb8	0.0130421445
86	0x3d631735	0.055442054
87	0x3ca1d83d	0.01975643
88	0xbcfb6fca	-0.030692954
89	0xbd855715	-0.0651075
90	0x3d47954c	0.048726365
91	0x3db730de	0.089448676
92	0x3d7031e6	0.058641337
93	0x3a6210bb	0.0008623709
94	0xbd24ce6d	-0.040235925
95	0xbd6517b5	-0.055930812
96	0xbd8fa0bd	-0.0701308
97	0xbbf9a3df	-0.007618412
98	0xbaffcd4d	-0.001951614
99	0xbc8bff1d	-0.01708942
100	0xbd8dbf94	-0.06921306
101	0xbd9070e5	-0.07052783
102	0xbd05741e	-0.03258144
103	0x3c01c0c6	0.007919496
104	0xbb86a947	-0.004109535
105	0x3d0ec409	0.034854922
106	0x3c234db9	0.009967261
107	0x3d2cefdd	0.04222094
108	0xbcdc07b1	-0.026859136
109	0xbda4ee11	-0.0805322
110	0xbb479e1f	-0.0030459238
111	0x3d0cab77	0.03434321
112	0x3d1f1c38	0.03884527
113	0x3caabc99	0.020841883
114	0xbd07343b	-0.033008795
115	0xbb970091	-0.004608222
116	0x3b4860d3	0.003057529
117	0xbcf8bad9	-0.030362533
118	0xbd377ff1	-0.04479975
119	0x3d700e93	0.05860765
120	0x3c8d9d0c	0.0172868
121	0x3d48e807	0.049049404
122	0xbc8dc617	-0.01730637
123	0xbd4c8cdc	-0.04993902
124	0xbcd442a6	-0.025910687
125	0x3c4ff755	0.012693246
126	0x3c46f51d	0.0121434005
127	0x3bbdaeaf	0.005788646
128	0x3d248e36	0.040174685
129	0x3ad0f2e9	0.0015941533
130	0x3ba0000e	0.004882819
131	0x3d02ec06	0.03196337
132	0xbb91c887	-0.0044489536
133	0x3c833fc3	0.016021615
134	0x3d321ebc	0.04348634
135	0xbd238fac	-0.039931938
136	0xbc6d2ab1	-0.01447551
137	0x3d0bca73	0.034128617
138	0x3d336e29	0.04380623
139	0x3cdccec0	0.026954055
140	0x3cad9fcb	0.02119436
141	0x3b46e30f	0.003034774
142	0xbc9adcd4	-0.018904127
143	0x3c24bfa2	0.010055454
144	0x3cd65ded	0.026167834
145	0x3c4db8bf	0.012556254
146	0x3cbfea4d	0.023427153
147	0xbc990766	-0.018680286
148	0x3cd281f8	0.02569674
149	0x3d040344	0.032229677
150	0xbdc9d683	-0.09855368
151	0xbc1777a8	-0.009244837
152	0xbc6f487e	-0.014604686
153	0x3c40dc63	0.011771294
154	0x3d648294	0.05578859
155	0xbc7f757b	-0.015591974
156	0x3d70f921	0.058831338
157	0xbbc97734	-0.0061482433
158	0xbd69d024	-0.057083264
159	0x3cc61d3e	0.024183866
160	0xbc0b37fb	-0.0084972335
161	0x3cdf4fe5	0.027259776
162	0x3ba23a88	0.004950825
163	0xbb7b7cf6	-0.0038374043
164	0xbd7cf2fb	-0.06175516
165	0xbd3e3fe9	-0.04644767
166	0xbd08384f	-0.033256825
167	0xbd50fc4f	-0.05102187
168	0x3d7c4049	0.061584745
169	0x3c7917cb	0.015203427
170	0x3db792e9	0.08963568
171	0xbca6fcef	-0.02038428
172	0xbc904851	-0.017612608
173	0xbc770493	-0.015076774
174	0xbc29a7b8	-0.010354929
175	0x3d12af53	0.035811733
176	0x3c1ec487	0.00969041
177	0x3c8cceb5	0.01718841
178	0xbd29fbfe	-0.041500084
179	0xbe0a580e	-0.13510153
180	0xbcfe6ce2	-0.031057779
181	0xbd0626c4	-0.032751814
182	0xbcd83d62	-0.026396457
183	0x3c94708e	0.018120077
184	0xbd1ff43a	-0.039051272
185	0xbc944879	-0.018100964
186	0x3d269b01	0.040675167
187	0x3c9f4a7a	0.019444693
188	0xbcd74afa	-0.026280869
189	0xbc9606c9	-0.018313782
190	0x3c01be00	0.007918835
191	0xbbb4c1a0	-0.005516246
192	0x3d0b5686	0.034018062
193	0x3cf6d9e7	0.0301332
194	0xbcc1995a	-0.023632694
195	0x3ca26535	0.01982365
196	0x3d89ea1c	0.06734106
197	0x3c6aba46	0.014326638
198	0xbcb5da3e	-0.022198793
199	0xbd8d5529	-0.06901009
200	0x3b857604	0.0040729064
201	0x3bf3259f	0.0074202563
202	0xbc672155	-0.014107068
203	0xbc13d8bb	-0.009023841
204	0x3c72fb5b	0.014830436
205	0x3bddce78	0.0067689978
206	0x3d706ebd	0.05869936
207	0xbba350c4	-0.0049839932
208	0x3caaecde	0.0208649
209	0x3d8cdf8d	0.068785764
210	0x3a7c63bb	0.0009627898
211	0x3d23551f	0.0398761
212	0x3c825623	0.015910214
213	0x3ca3f184	0.020012625
214	0x3c847c67	0.0161726
215	0x3c87c0dc	0.016571455
216	0x3bdca9e0	0.006734118
217	0x3bde3c5d	0.006782098
218	0x3d14acc1	0.036297563
219	0xbca0d4c5	-0.019632706
220	0x3bd790a6	0.0065785227
221	0x3cd6302a	0.026146013
222	0xbc319a7f	-0.010840057
223	0x3c3a5791	0.0113734165
224	0xbcdd64d2	-0.027025614
225	0x3c6c52c1	0.014424027
226	0xbc9f28c6	-0.019428622
227	0x3c66d920	0.014089853
228	0x3c35f8f5	0.011106719
229	0xbdbb71a3	-0.09152534
230	0xbc576e0e	-0.013148798
231	0xbc88d24f	-0.016701845
232	0x3c4d3804	0.012525562
233	0xbc33deb5	-0.01097839
234	0xbccec097	-0.025238318
235	0x3d3b9785	0.045798797
236	0xbc8d5097	-0.017250342
237	0x3c18e396	0.0093316045
238	0xbc33a097	-0.010963581
239	0xbd576d82	-0.05259467
240	0x3d03b910	0.03215891
241	0x3d093a1e	0.03350269
242	0x3ce1365d	0.027491743
243	0xbc9f7c6f	-0.019468514
244	0xbd6d034b	-0.05786447
245	0x3b082f28	0.002078006
246	0xbd1c285a	-0.03812442
247	0x3a9bd7a9	0.0011889833
248	0xbc542012	-0.012947099
249	0x3c525e01	0.012839795
250	0xbb37a563	-0.0028022162
251	0x3b224319	0.0024759232
252	0x3d250d44	0.040295854
253	0x3d247e2b	0.040159386
254	0x3c982563	0.018572515
255	0x3d3d183e	0.046165697

fc1.bias f4 [120]
0	0x3d33663d	0.043798674
1	0xbc9da926	-0.019245695
2	0xbca8befb	-0.02059888
3	0x3d0fb591	0.035085265
4	0x3a56b17f	0.0008189901
5	0xbcba3cf7	-0.022734148
6	0xbbe294fd	-0.0069147334
7	0x3ce00ea9	0.02735074
8	0x3d30701c	0.043075666
9	0xbcd209d4	-0.025639452
10	0xbb4394a1	-0.0029843228
11	0x3b85e45e	0.0040860614
12	0xbc769d75	-0.015052189
13	0xbc4c9373	-0.0124863265
14	0x3c2e698e	0.010645283
15	0xbbcb655f	-0.0062071527
16	0xbc7f71cd	-0.015591097
17	0xbb0bc608	-0.0021327753
18	0x3cb240c6	0.021759402
19	0xbc55eff8	-0.013057701
20	0x3c4c28d6	0.012460908
21	0xbc91eaa8	-0.017812088
22	0x3d095f95	0.03353842
23	0x3d2e4957	0.04255041
24	0x3cdecbba	0.027196754
25	0x3a99f618	0.0011746315
26	0x3d3cca63	0.04609145
27	0x3cc8276c	0.02443286
28	0x3c6dfc5d	0.0145255
29	0xbc20db75	-0.009817948
30	0xbb2b3287	-0.0026122646
31	0x398fae17	0.00027404792
32	0x3d129cad	0.03579395
33	0xbc313a26	-0.010817086
34	0xbcf92266	-0.03041191
35	0xbc10ef7a	-0.008846158
36	0x3c736ba3	0.014857206
37	0x3ceb0830	0.028690428
38	0x3b09a4cf	0.0021002775
39	0x3c98426f	0.018586366
40	0x3b04832a	0.0020219781
41	0xbb00a9e5	-0.0019632515
42	0xbc0e5bbd	-0.008688864
43	0xbd0c2550	-0.03421527
44	0xb9bb3899	-0.00035709588
45	0xbc855668	-0.016276553
46	0x3b6f7192	0.00365362
47	0xbcdd84bf	-0.027040837
48	0xbce0d055	-0.02744309
49	0x3ca894c4	0.02057875
50	0xbc81aac8	-0.015828505
51	0x3cea38a0	0.028591454
52	0x3d4a8742	0.0494454
53	0x3c75bf0a	0.014999161
54	0xbbfd2374	-0.0077251736
55	0x3ccd9303	0.025094515
56	0xbcc689a6	-0.024235558
57	0x3d372622	0.0447141
58	0x3d1af6bf	0.03783297
59	0xbd069dff	-0.03286552
60	0x3bace1ad	0.005275926
61	0xbd21eb38	-0.039530963
62	0xbb7d2def	-0.0038632115
63	0x3d14a0cb	0.036286157
64	0xbc42f7f4	-0.011899937
65	0x3b5f8fdb	0.0034112844
66	0x3c14697d	0.0090583535
67	0x3cb7477a	0.02237295
68	0xbb832d08	-0.004003171
69	0xbc654f9c	-0.013996031
70	0x3badef25	0.0053080493
71	0x3c6731f9	0.0141110355
72	0xbc8d6306	-0.017259132
73	0x3cdf7280	0.027276278
74	0x3d2302f4	0.03979774
75	0x3c09c43f	0.008408605
76	0x3d2321f0	0.039827287
77	0x3d0e6449	0.034763608
78	0xbcc691e2	-0.024239484
79	0x3b81915a	0.003954095
80	0xbd18b1c2	-0.037278898
81	0x3d019d52	0.031644173
82	0xbd1d12df	-0.038348075
83	0xbcf48376	-0.029847842
84	0x3caf607a	0.021408308
85	0xbce125fd	-0.027483935
86	0x3c8bdc48	0.017072812
87	0xbca0f87f	-0.019649742
88	0x3cf3a7fb	0.029743185
89	0x3c68c3bd	0.014206824
90	0x3d240f37	0.040053573
91	0xbca27ee3	-0.019835895
92	0xbc188776	-0.00930964
93	0xbca4b76c	-0.020106994
94	0xbbb1aa06	-0.0054218797
95	0xbc65ab17	-0.014017842
96	0x3cd2d660	0.025736988
97	0x3d0cd3ee	0.0343818
98	0xbcfa501b	-0.030555775
99	0x3cf3532f	0.029702751
100	0x3affc44b	0.0019513456
101	0x3b907a8d	0.0044091404
102	0xbc1f292b	-0.009714405
103	0xbd206dad	-0.039167095
104	0x3cf75f6d	0.03019687
105	0xbcb7804a	-0.02240004
106	0xbc95b1bf	-0.018273233
107	0xbc151f32	-0.009101676
108	0x3cc15258	0.023598835
109	0xbd04e9eb	-0.032449644
110	0xbc50b386	-0.012738114
111	0x3b3ecce8	0.0029113833
112	0x3c24b62d	0.0100532
113	0xbcb6f4e4	-0.02233357
114	0xbb8a22eb	-0.0042155883
115	0x3ce4a28a	0.027909536
116	0xbd0af90e	-0.033928923
117	0x3d6c8b12	0.057749815
118	0x3cfe4c15	0.031042138
119	0xbd0a4df8	-0.033765763

fc2.weight f4 [84, 120]
0	0x3bd8313b	0.0065976656
1	0x3d0e3c51	0.03472549
2	0x3da6d24e	0.08145581
3	0x3bc4135a	0.005983752
4	0x3c9d6480	0.019212961
5	0xbccb151c	-0.02479034
6	0x3de6b1ba	0.112643674
7	0xbcd35fb8	-0.025802478
8	0xbdd28536	-0.10279314
9	0xbc9154af	-0.017740576
10	0xbdaa9f19	-0.08331127
11	0x3bdb6534	0.006695414
12	0x3da7fa1c	0.082020015
13	0xbc92309c	-0.017845444
14	0x3d7db6da	0.06194196
15	0xbd6de92f	-0.05808371
16	0xbca20389	-0.019777076
17	0xbd67dfd4	-0.056609944
18	0xbdd25e23	-0.102718614
19	0xbd96b8cd	-0.07359467
20	0x3c494d65	0.012286519
21	0x3d2d59c2	0.042321928
22	0x3ddc9c91	0.1077205
23	0x3dce5990	0.100756764
24	0xbda904e9	-0.0825289
25	0xbd9d5dec	-0.0768393
26	0x3d72640d	0.059177447
27	0x3d852f34	0.06503144
28	0xbc325eaa	-0.0108868275
29	0xbcccbf15	-0.024993459
30	0xbdcb3b9f	-0.09923481
31	0x3db651b2	0.08902301
32	0x3c4d7e6d	0.012542349
33	0xbd6fa5f9	-0.058507893
34	0x3c85b434	0.01632128
35	0x3d9047d0	0.07044947
36	0x3bef2491	0.00729806
37	0xbd3010ec	-0.042984888
38	0x3d83f2d2	0.06442799
39	0x3ba8350e	0.0051332777
40	0x3c087d97	0.008330724
41	0x3d6080d1	0.05481035
42	0x3d8259fd	0.0636482
43	0xbbca7df6	-0.0061795665
44	0x3da7f959	0.08201856
45	0xbd640498	-0.055668443
46	0xbd43f7e6	-0.047843836
47	0x3dbd65e7	0.09247952
48	0x3c98bb34	0.018643953
49	0x3d2b2e5c	0.04179226
50	0x3b4ab56d	0.0030930892
51	0xbaf385fe	-0.0018579361
52	0xbd48fc2e	-0.049068622
53	0xbd4bd1c8	-0.04976061
54	0xbd905218	-0.07046908
55	0xbd6886af	-0.05676907
56	0xbd172fe9	-0.036910925
57	0xbd399923	-0.04531206
58	0xbe080c58	-0.13285959
59	0xbd8ea0bc	-0.069642514
60	0x3cf85e29	0.030318337
61	0xbd69c47d	-0.05707215
62	0x3d027313	0.031848025
63	0x3d7d81c6	0.06189134
64	0xbd874646	-0.066052005
65	0x3d2e4865	0.04254951
66	0x3d26f464	0.040760413
67	0x3d8deb28	0.06929618
68	0x3dabb2c6	0.08383708
69	0xbd297638	-0.041372508
70	0xbdcedfe8	-0.101013005
71	0x3d749d32	0.059720226
72	0xbbf42bc9	-0.0074515087
73	0xbb741445	-0.0037243527
74	0x3cde72c8	0.027154341
75	0x3dea3b8d	0.1143714
76	0xbc84f913	-0.01623205
77	0xbd02ccdd	-0.031933654
78	0xbb93af11	-0.0045069535
79	0x3dd174ba	0.10227342
80	0xbd3f6cfb	-0.04673479
81	0x3daa3da1	0.08312536
82	0x3d8c1c13	0.06841292
83	0x3d65d16f	0.056107935
84	0xbda8cc60	-0.082421064
85	0x3cd4a0c2	0.025955562
86	0xbd8fc18c	-0.07019338
87	0x3da9c094	0.082886845
88	0xbc656bf8	-0.014002793
89	0x3d9edbf6	0.07756798
90	0xbd72dfa4	-0.05929531
91	0xbd455b1d	-0.048182596
92	0x3db458b8	0.08805984
93	0xbd8b577d	-0.068037964
94	0xbdad6c33	-0.08467903
95	0xbdb5f037	-0.08883708
96	0xbded84ca	-0.11597593
97	0x3dbc1bfa	0.091850236
98	0x3c818311	0.015809568
99	0x3dd79bea	0.10527785
100	0x3dbdb414	0.09262863
101	0xbcd578de	-0.02605861
102	0x3de71978	0.11284155
103	0xbce1b7d7	-0.027553482
104	0xbbc3dd57	-0.0059773135
105	0x3c239d4e	0.009986235
106	0xbd031513	-0.03200252
107	0x3b9eaedf	0.0048426236
108	0x3d3fbcd8	0.046810955
109	0x3d692c7d	0.056927193
110	0xbd8896cc	-0.06669387
111	0x3cde0070	0.027099818
112	0xbd103365	-0.035205264
113	0xbd5d79f5	-0.054071385
114	0xbc8b50eb	-0.017006358
115	0x3db6d440	0.08927202
116	0xbac31b47	-0.0014885449
117	0x3dc1438f	0.09436714
118	0x3cd26308	0.025681987
119	0x3d17dcd4	0.037075832
120	0x3d3f21b0	0.046662986
121	0xbd82cfb0	-0.063872695
122	0xbd5bad21	-0.053631905
123	0x3c8c3ceb	0.017118892
124	0x3bca6aba	0.0061772736
125	0xbdb92556	-0.090403244
126	0xbc9a666a	-0.018847663
127	0x3d415aed	0.047205854
128	0x3d8fef45	0.07028059
129	0xbda5e570	-0.08100402
130	0x3db991d0	0.09061015
131	0xbdb5dda2	-0.08880164
132	0xbd9ddfc5	-0.07708696
133	0xbd680008	-0.056640655
134	0x3d71e2f3	0.059054326
135	0xbda63c26	-0.08116941
136	0xbcba39e8	-0.02273269
137	0x3d2b37c4	0.04180123
138	0x3caaf033	0.020866489
139	0x3d7a0164	0.061036482
140	0xbda4f95d	-0.08055375
141	0xbd94a56f	-0.072581165
142	0xbcb60c47	-0.022222651
143	0xbdb905a5	-0.0903428
144	0xbd3b5bcf	-0.045741852
145	0x3c1e7160	0.009670585
146	0x3a4c2d2b	0.0007788713
147	0xbd29fcda	-0.041500904
148	0xbd337d7a	-0.043820836
149	0xbda74dee	-0.08169161
150	0xbd3bbfa6	-0.045837067
151	0xb9c90c00	-0.00038346648
152	0xbdcc5fe1	-0.09979225
153	0x3d5f121c	0.05446063
154	0x3d7ef218	0.062242597
155	0xbce122c0	-0.02748239
156	0xbd1eb09b	-0.038742643
157	0xbc1c6540	-0.009545624
158	0xbc92a7dd	-0.01790231
159	0xbcf3b946	-0.029751431
160	0x3da857c5	0.08219866
161	0x3d8fc9dc	0.070209235
162	0xbd913bfd	-0.0709152
163	0xbd200b4c	-0.039073274
164	0xbcfb3494	-0.03066472
165	0x3d9e828c	0.077397436
166	0x3c5dcbbf	0.013537346
167	0x3dbfec32	0.093712226
168	0xbcc43a12	-0.023953471
169	0xbd07e964	-0.033181563
170	0x3ca52468	0.020158961
171	0x3d5ad845	0.053428907
172	0xbbf11334	-0.0073570255
173	0x3cfc84d8	0.030825064
174	0xbd9d4939	-0.07679982
175	0xbd50fbca	-0.051021375
176	0x3d9a001a	0.075195506
177	0xbd9fa5cf	-0.07795297
178	0xbd80cf19	-0.06289501
179	0xbd01ea83	-0.03171779
180	0x3d3d4ed4	0.046217754
181	0x3dadad9c	0.08480379
182	0xbdae1f4b	-0.085020624
183	0x3d666fbd	0.056258906
184	0x3d92458c	0.07142171
185	0x3d82ed1c	0.06392881
186	0x3d14348a	0.036182918
187	0x3d9af74c	0.075666994
188	0x3bd0e110	0.006374486
189	0xbd8281a1	-0.06372381
190	0xbcf34b90	-0.029699117
191	0x3d5717f8	0.052513093
192	0x3c0bf3f5	0.008542051
193	0x3d026358	0.031833023
194	0x3d13a9aa	0.036050476
195	0xbd9a21b0	-0.07525957
196	0xbd2e1a9b	-0.04250584
197	0xbdb7707d	-0.08957002
198	0xbbcdb770	-0.006277971
199	0xbc611225	-0.013737236
200	0xbb17d378	-0.0023166817
201	0x3ce4500e	0.027870204
202	0xbd8f8fa4	-0.07009819
203	0x3b508620	0.0031818226
204	0x3c77e698	0.015130661
205	0x3d0bf3bc	0.03416799
206	0xbca863dc	-0.02055543
207	0x3bf48120	0.007461682
208	0xbd7e80fe	-0.062134735
209	0x3c4794e0	0.012181491
210	0x3d90a0a8	0.07061893
211	0xbd81c560	-0.063364744
212	0x3bbd5ede	0.0057791313
213	0x3d178bdc	0.036998615
214	0xbdc8fe96	-0.098141834
215	0xbd210cd0	-0.03931886
216	0xbc18dd8a	-0.009330163
217	0xbd3678d2	-0.044548817
218	0xbdaa6a6a	-0.08321078
219	0x3d8022eb	0.0625666
220	0x3dbaf035	0.09127847
221	0xbd82fe06	-0.063961074
222	0xbd9c75bd	-0.07639644
223	0x3d414414	0.047184065
224	0xbb936bee	-0.00449895
225	0x3d1c3a6c	0.038141653
226	0x3d577bc0	0.05260825
227	0xbda3835d	-0.0798404
228	0xbd08d3f7	-0.03340527
229	0x3d8b1fc2	0.06793167
230	0x3d9de420	0.07709527
231	0x3dac79bc	0.084216565
232	0x3c9d8066	0.019226264
233	0xbca2848c	-0.019838594
234	0xbd95f92d	-0.07322917
235	0xbd858e9a	-0.0652134
236	0xbdb277ec	-0.087142795
237	0xbda6cafc	-0.08144185
238	0x3d957af6	0.072988436
239	0xbd97a52a	-0.074045494
240	0xbd67568a	-0.056479014
241	0xbdb3e71f	-0.08784317
242	0xbcf5104c	-0.029914998
243	0xbd6914b2	-0.056904502
244	0xbc018f47	-0.007907695
245	0x3db7c58e	0.089732274
246	0xbb74eb04	-0.0037371526
247	0x3cbd2848	0.023090497
248	0x3d0c4c2f	0.03425234
249	0x3d34df08	0.04415801
250	0xbd4984f1	-0.04919905
251	0xbdb1cd29	-0.08681709
252	0xbd5c8be5	-0.05384435
253	0xbda850b8	-0.08218521
254	0x3d619922	0.05507768
255	0x3c2a76a9	0.010404267

fc2.bias f4 [84]
0	0x3d4cdb79	0.050013993
1	0xbdae1ad1	-0.085012086
2	0x3d86fbbc	0.06590983
3	0x3d4833c6	0.0488775
4	0xbd45cb4f	-0.048289593
5	0x3c2e177a	0.010625714
6	0x3dbdb67a	0.0926332
7	0x3dadb029	0.084808655
8	0x3d2cb12e	0.04216116
9	0x3da1213b	0.07867666
10	0xbd8f6221	-0.070011385
11	0x3cddd8ba	0.027080882
12	0x3ce6216a	0.028092105
13	0x3d91a6cf	0.07111894
14	0x3ceb986b	0.028759202
15	0x3d9ad643	0.075603984
16	0x3d08294b	0.033242505
17	0xbcacc1b0	-0.021088451
18	0xbc1a27e9	-0.009408929
19	0x3cee980e	0.02912524
20	0x3db281fd	0.087161995
21	0xbd254d3b	-0.040356856
22	0x3db8397d	0.0899534
23	0x3d633a89	0.055475745
24	0x3d998678	0.07496351
25	0x3d3444ce	0.04401093
26	0x3d9f07e0	0.07765174
27	0x3d7e8489	0.062138114
28	0xbc9d1bbd	-0.019178266
29	0x3ce110fb	0.027473917
30	0x3d1cbda7	0.038266804
31	0xbdcf9a3c	-0.1013684
32	0xbc8d6276	-0.017258864
33	0x3d2ab3fc	0.041675553
34	0x3caeb1c6	0.021325003
35	0xbbe5e6bf	-0.0070160325
36	0xbd2bd611	-0.041952197
37	0xbd1ad5e3	-0.037801635
38	0xbd7ca55d	-0.06168114
39	0x3d126169	0.03573743
40	0x3cf40694	0.029788293
41	0x3d83f11a	0.06442471
42	0x3cf820b2	0.030289028
43	0x3cb9c5c9	0.02267732
44	0x3c733594	0.014844317
45	0xbce927f5	-0.028461436
46	0x3d908210	0.070560575
47	0x3d44012d	0.047852684
48	0xbbba0116	-0.005676399
49	0xbd3fa4c9	-0.04678801
50	0x3d4d8faa	0.050185837
51	0xbca21107	-0.01978351
52	0x3d9031ca	0.070407465
53	0xbd3aa759	-0.04556975
54	0x3c81f887	0.015865577
55	0x3c524d4a	0.01283581
56	0xbd494e09	-0.049146686
57	0xbd69cf4d	-0.057082463
58	0x3d76ade7	0.06022444
59	0x3da06837	0.078323774
60	0xbd3a7024	-0.045517102
61	0xbd096f2c	-0.033553287
62	0x3d8283a4	0.06372765
63	0x3d6ab74f	0.057303723
64	0x3bd86d8a	0.006604855
65	0xbd1f3f37	-0.038878646
66	0x3d8c6d89	0.0685683
67	0x3c0db812	0.008649843
68	0xbb9f7c93	-0.0048671453
69	0xbc8442b3	-0.016145086
70	0x3d24db57	0.04024824
71	0xbd7e2f8c	-0.062057063
72	0x3c0d093a	0.008608157
73	0xbca8c45c	-0.020601444
74	0x3cb43383	0.021997219
75	0x3db78ced	0.08962426
76	0xbd78d8c1	-0.060753588
77	0xbca80dea	-0.020514447
78	0x3d6862bf	0.056734797
79	0xbcef42c5	-0.029206643
80	0x3cd01bbf	0.025403855
81	0xbb4cbe1e	-0.0031241248
82	0x3c9c7338	0.01909791
83	0x3d7cfc65	0.06176414

fc3.weight f4 [66, 84]
0	0xbd96feb3	-0.07372799
1	0xbd54b267	-0.05192795
2	0x3c384c12	0.011248605
3	0xbde09130	-0.10965192
4	0xbd9cd288	-0.07657343
5	0x3c02597e	0.007955907
6	0x3d9f356d	0.07773862
7	0xbd7724f0	-0.06033796
8	0x3defa75e	0.11701845
9	0xbd85dedf	-0.0653665
10	0xbde99bb0	-0.11406648
11	0xbdc6624d	-0.09686718
12	0xbd75c571	-0.060002748
13	0xbd701265	-0.058611292
14	0xbcb6478d	-0.022250915
15	0xbde53e36	-0.111935064
16	0x3d70dbd7	0.058803406
17	0x3ddb29bc	0.107013196
18	0x3d17f861	0.037102107
19	0xbc5c91b1	-0.01346247
20	0x3db62e9f	0.08895611
21	0xbca82533	-0.02052555
22	0xbc20fdac	-0.009826105
23	0x3dab1a5a	0.083546355
24	0x3d8211ea	0.06351073
25	0xbd6dfc17	-0.05810174
26	0x3d6ae049	0.0573428
27	0xbda0aee9	-0.078458615
28	0xbddf1805	-0.10893253
29	0xbd90cdae	-0.0707048
30	0x3ca9bbed	0.020719493
31	0x3d6cca81	0.05781031
32	0xb96f8caf	-0.00022845225
33	0xbcab6506	-0.020922195
34	0x3d39bec6	0.04534795
35	0xbd8cf2f6	-0.068822786
36	0xbdab3434	-0.08359566
37	0xbdb04ff5	-0.086090006
38	0x3c0338b7	0.008009127
39	0xbdd5de6f	-0.104428165
40	0xbdaceb9e	-0.08443378
41	0x3e018c06	0.12651071
42	0xbd9715f0	-0.07377231
43	0xbde5aad7	-0.11214226
44	0xbdcf9c70	-0.1013726
45	0x3de3b22e	0.111179695
46	0xbd6b8a14	-0.05750473
47	0x3e061aa9	0.13096108
48	0xbd2e0348	-0.042483598
49	0x3ce56033	0.027999973
50	0xbd78cb5c	-0.060740814
51	0xbd65e16a	-0.056123175
52	0x3dcd9884	0.10038856
53	0x3d7b4e89	0.061354194
54	0x3db2aca5	0.087243356
55	0xbc00d302	-0.007862808
56	0xbd8a0584	-0.06739333
57	0x3d29c934	0.041451648
58	0xbdbf3c47	-0.09337669
59	0x3d1d0f38	0.03834459
60	0x3dc42819	0.095779605
61	0xbd13290b	-0.035927814
62	0xbd1fac16	-0.038982473
63	0x3d2a501b	0.0415803
64	0x3caa643c	0.020799749
65	0x3ce1691e	0.027515944
66	0xbd00bd1b	-0.031430345
67	0x3c9b684b	0.01897063
68	0xbb598060	-0.003318809
69	0x3dec0e7d	0.11526201
70	0xbd24f933	-0.040276717
71	0xbda79770	-0.08183181
72	0x3c9c71e6	0.01909728
73	0xbc217e3b	-0.009856756
74	0xbc743c7c	-0.014906999
75	0xbd38dd98	-0.045133203
76	0x3d96ecef	0.0736941
77	0x3d9030b2	0.07040538
78	0xbe142a69	-0.14469303
79	0x3da57afe	0.080800995
80	0x3ce7a2cd	0.028275872
81	0x3d9dfc4b	0.07714137
82	0x3d345b01	0.0440321
83	0xbdedbb10	-0.11607945
84	0x3d2b52df	0.04182708
85	0xbd15f6ec	-0.036612436
86	0x3bb3d167	0.005487609
87	0x3d7cfbaf	0.06176346
88	0x3d88879f	0.06666493
89	0x3cecf1ce	0.028923895
90	0xbdff3d53	-0.124628685
91	0x3def2562	0.11677052
92	0xbd18426d	-0.037172724
93	0x3db25f58	0.087095916
94	0xbda6839c	-0.08130571
95	0x3d879e0a	0.066219404
96	0xbd1f6559	-0.038915012
97	0x3dcde181	0.10052777
98	0x3d2a8704	0.041632667
99	0xbd90b2bd	-0.070653416
100	0xbd85b464	-0.065285474
101	0x3d17c776	0.037055455
102	0xbd11c583	-0.035588752
103	0x3dcb1dfa	0.09917827
104	0xbda7889e	-0.081803545
105	0xbe164960	-0.14676428
106	0xbda440e2	-0.08020188
107	0xbd6d7626	-0.057974003
108	0xbd01a533	-0.031651687
109	0xbc5935a6	-0.01325742
110	0xbd42efe8	-0.047592074
111	0xbd898aa0	-0.06715894
112	0xbd20d86f	-0.039268907
113	0x3db40c51	0.08791412
114	0xbdac5660	-0.08414912
115	0xbd336dcc	-0.043805882
116	0xbdfef60c	-0.124492735
117	0xbb61c02e	-0.0034446823
118	0xbdb0e962	-0.08638264
119	0xbc170e51	-0.009219722
120	0x3dd0580d	0.10173044
121	0x3d63c488	0.05560735
122	0xbc9ae59e	-0.018908318
123	0x3d1eb710	0.0387488
124	0xbde35166	-0.1109951
125	0xbd42d28b	-0.04756407
126	0x3d42f73c	0.047599062
127	0xbcdd1110	-0.026985675
128	0x3da12da1	0.07870031
129	0x3c852661	0.016253652
130	0x3db4893a	0.088152364
131	0xbd3e208e	-0.046417765
132	0xbda928a1	-0.082597025
133	0xbda269e1	-0.07930351
134	0xbdb63a02	-0.08897783
135	0xbca44d65	-0.020056436
136	0xbd17ba38	-0.037042826
137	0x3cd2513f	0.025673507
138	0x3d43760d	0.047720004
139	0x3d4fa3d2	0.05069334
140	0xbd8d5486	-0.06900887
141	0xbe2b8790	-0.16750932
142	0xbdac40bb	-0.08410784
143	0x3ce4f5c6	0.027949225
144	0xbd7fa084	-0.06240894
145	0x3ba3aada	0.0049947323
146	0x3d17e186	0.03708031
147	0x3c4c9c02	0.012488367
148	0x3dadfe89	0.08495814
149	0x3d08f587	0.033437278
150	0xbd28a80c	-0.041175887
151	0x3dbf1be3	0.09331491
152	0xbcb4b084	-0.022056825
153	0xbd59bcda	-0.05315862
154	0x3d550608	0.052007705
155	0xbddaf23c	-0.10690734
156	0x3b524320	0.0032083467
157	0xbd8de66f	-0.06928717
158	0x3db1029e	0.08643077
159	0x3c093968	0.008375503
160	0x3c10127e	0.008793471
161	0xbd2d0fd6	-0.04225143
162	0xbdbbdce9	-0.09172995
163	0x3c36ff9b	0.0111693395
164	0x3dd07f4a	0.101805285
165	0x3bb4c2a3	0.0055163666
166	0x3c9796d5	0.01850454
167	0x3d225aae	0.03963726
168	0x3d2b653b	0.041844588
169	0xbd1de864	-0.038551703
170	0xbd01e9f1	-0.031717245
171	0xbc856754	-0.016284622
172	0x3c5098ea	0.01273177
173	0xbe1a4c25	-0.1506811
174	0xbdd55fba	-0.10418649
175	0x3df3e8ed	0.119096614
176	0xbb6c46e9	-0.0036053008
177	0x3c72d192	0.014820473
178	0x3d294a20	0.041330457
179	0xbdd3004c	-0.10302791
180	0x3c2cf5f4	0.010556687
181	0x3dabb256	0.08383624
182	0xbd9d1ff7	-0.076721124
183	0x3d5a758c	0.053334758
184	0x3cba9d09	0.022779958
185	0x3cf2181d	0.029552514
186	0xbd98b2d4	-0.07455984
187	0xbde7ca3a	-0.113178685
188	0xbd6b92b8	-0.05751297
189	0x3dd2407e	0.10266207
190	0xbe08f68e	-0.13375303
191	0x3cb2c513	0.021822488
192	0xbd8ce5a6	-0.068797395
193	0x3d9f4bd3	0.07778134
194	0xbd4f5917	-0.050622072
195	0x3d71e861	0.059059504
196	0x3dfcd007	0.123443656
197	0xbd80cd03	-0.06289103
198	0x3da8ad37	0.08236163
199	0xbd8a18bd	-0.06743
200	0xbc8a341d	-0.016870553
201	0x3d7a6d32	0.061139293
202	0xbc5a36df	-0.013318746
203	0x3c754f1d	0.014972475
204	0xbe287a5f	-0.16452931
205	0xbd7681f1	-0.060182516
206	0xbd2d7ec7	-0.042357232
207	0xbc47a044	-0.012184206
208	0xbe112db1	-0.14177586
209	0x3cd61a1e	0.0261355
210	0xbe0a52d7	-0.13508163
211	0xbdb33dc1	-0.08752013
212	0xbc7d2d5a	-0.015452707
213	0x3c757746	0.01498205
214	0xbe0e594e	-0.13901255
215	0x3c9a5949	0.018841403
216	0xbd33533f	-0.04378056
217	0xbe00e097	-0.12585674
218	0x3d69e303	0.05710126
219	0xbe38c3eb	-0.18043487
220	0xbe08e6b8	-0.13369262
221	0x3d9d48f2	0.07679929
222	0xbd6d8483	-0.0579877
223	0xbdd253ed	-0.10269914
224	0x3db6bfd5	0.08923308
225	0x3d837119	0.06418056
226	0xbcd5da59	-0.026105093
227	0xbd915063	-0.07095411
228	0x3d81f55d	0.063456275
229	0x3d19c9fd	0.037546147
230	0x3ddf2e10	0.108974576
231	0xbdbbce25	-0.09170178
232	0xbc7623fc	-0.015023228
233	0x3d5e41fd	0.05426215
234	0xbdd5c7a0	-0.10438466
235	0x3d8f1cf1	0.06987942
236	0xbc420d69	-0.011844018
237	0xbd7c6d2c	-0.061627552
238	0x3d69c3bd	0.057071436
239	0xbdee4442	-0.11634113
240	0xbc2f5fa0	-0.010703951
241	0x3cb39c88	0.021925226
242	0x3d8394c9	0.06424863
243	0xbdd6665c	-0.10468742
244	0x3e039d5b	0.12852995
245	0x3d2e6c85	0.04258396
246	0xbb9fe005	-0.004879
247	0x3d2149c2	0.03937698
248	0x3d67a33e	0.056552164
249	0xbe08650c	-0.13319796
250	0xbd918af6	-0.07106583
251	0xbde2c239	-0.11072201
252	0x3ddee4f8	0.10883516
253	0xbd9ffae6	-0.07811527
254	0xbcb33b72	-0.021878932
255	0xbcac14cf	-0.021006016

fc3.bias f4 [66]
0	0x3dbf470b	0.09339722
1	0x3d76bac3	0.060236704
2	0xbd062a7e	-0.032755367
3	0x3d95adc8	0.07308537
4	0x3d9b827b	0.075932465
5	0xbd5f0d31	-0.05445594
6	0xbd1d6a09	-0.0384312
7	0xbc9dc3cf	-0.019258408
8	0x3da027af	0.07820069
9	0xbdb1172e	-0.08646999
10	0x3d950879	0.07277007
11	0x3d8c7133	0.068575285
12	0xbe0464cc	-0.12929076
13	0xbc8c1a85	-0.01710249
14	0xbde2e8f2	-0.11079587
15	0x3bede17b	0.0072595454
16	0xbdb5eee7	-0.08883458
17	0x3dc83629	0.09775955
18	0xbdc8b65f	-0.098004095
19	0x3d94b3d1	0.0726086
20	0x3d7b973e	0.061423533
21	0x3c2d65d0	0.010583356
22	0x3db4c1e1	0.08826042
23	0xbd5d72ba	-0.05406449
24	0xbda15fb9	-0.07879586
25	0x3de64927	0.112444215
26	0xbdc9898d	-0.09840689
27	0xbd1bf61c	-0.038076505
28	0xbc9871a4	-0.018608876
29	0x3cc571ab	0.024102053
30	0x3d0c618b	0.03427271
31	0x3d0a2944	0.03373076
32	0x3cf93909	0.030422704
33	0xbdce71bf	-0.10080289
34	0xbc6d478c	-0.01448239
35	0x3d9d058c	0.076670736
36	0xbd4d9c2a	-0.050197758
37	0x3d4e3192	0.050340243
38	0x3d2a87ce	0.04163342
39	0x3d8756ef	0.06608378
40	0x3d3fa2b0	0.04678601
41	0xbd2deaac	-0.04246013
42	0xbdea9785	-0.11454681
43	0xbdba1687	-0.09086328
44	0xbda598fe	-0.080858216
45	0xbd05105d	-0.03248631
46	0xbc8797dc	-0.016551904
47	0x3d54778f	0.051871832
48	0xbd304e30	-0.043043315
49	0x3dc42649	0.09577615
50	0x3d361008	0.044448882
51	0x3d09b20f	0.033617076
52	0x3cb2f6d7	0.021846218
53	0xbda21753	-0.07914605
54	0x3dc022d2	0.093816414
55	0x3cb84f31	0.022498699
56	0x3d9b2f0b	0.07577332
57	0x3cb0cb56	0.021581333
58	0xbdbe0455	-0.0927817
59	0xbda3a059	-0.07989568
60	0x3d19fb63	0.037593257
61	0xbd804247	-0.062626414
62	0xbdafbfff	-0.08581542
63	0x3d8676cb	0.06565627
64	0xbd4b1a0b	-0.049585383
65	0xbdad397f	-0.08458232
